results/XJTU-handcraft_features/LSTM/batch1-testbattery2/experiment1/LSTM_handcraft_features_model.pkl (torch, 979382 bytes, 13 tensors)

weight f4 [512, 67]
000000 80 d6 2c 2f 8f e3 60 2e b9 02 ea 2d 47 80 29 ae
       1.5719515e-10 5.1133816e-11 2.6603929e-11 -3.8540084e-11
000010 02 b9 4e 2e 03 9b b0 2d 17 f1 86 ad 50 82 bf 2e
       4.7003297e-11 2.0077722e-11 -1.5341102e-11 8.7088226e-11
000020 27 01 19 ad ef bf db 2e 45 b2 c6 2c a8 e8 1f 2f
       -8.697299e-12 9.993061e-11 5.6472904e-12 1.4543622e-10
000030 7d e4 01 2d 6c fc de ae de 7f 41 af 2f c7 5a ae
       7.383536e-12 -1.014023e-10 -1.7598675e-10 -4.9744372e-11
000040 67 5f 4b 2e a2 6d 07 ad 9d 8c 48 2e b6 6a 92 ad
       4.624159e-11 -7.698205e-12 4.5599625e-11 -1.6645667e-11
000050 cc 6b b7 ae 10 d7 ad ac 31 64 87 ad f9 30 9b 2c
       -8.341025e-11 -4.9408325e-12 -1.5392217e-11 4.410802e-12
000060 c0 5c 0f 2d ee 76 9f ad 49 fd 6e ae 53 48 e3 ae
       8.1492035e-12 -1.8129023e-11 -5.4339897e-11 -1.0335612e-10
000070 5e a1 90 ae a9 e3 6e 2d ab f8 f4 2e 7a bd 25 2e
       -6.5770264e-11 1.3579284e-11 1.1140008e-10 3.7684945e-11
000080 27 3c 22 ae ee 4f 0d ae 28 4e d1 ae b4 d7 67 ad
       -3.688796e-11 -3.213068e-11 -9.518103e-11 -1.31787255e-11
000090 5f 46 11 ae ba 3e c6 ae d2 f5 c5 2d a5 49 be ad
       -3.3031685e-11 -9.01514e-11 2.2505473e-11 -2.1633204e-11
0000a0 ac f7 06 ae 17 08 37 ae 8a ee eb 2d 8f a2 05 2f
       -3.068805e-11 -4.1616568e-11 2.682234e-11 1.2154032e-10
0000b0 d1 cf 40 ad b0 c1 34 ae f2 ab 68 ae 75 dc 98 2d
       -1.0960081e-11 -4.109929e-11 -5.290341e-11 1.7378302e-11
0000c0 be f5 93 2d 03 45 63 2d 8c b4 99 2d aa 1c 96 2d
       1.6821097e-11 1.291878e-11 1.7474265e-11 1.7065755e-11
0000d0 8f 25 70 2e 94 8f 2e 2f c2 1b 3b af 25 4c 50 af
       5.460304e-11 1.5876217e-10 -1.7017412e-10 -1.8944542e-10
0000e0 de d7 c9 2d fd 22 1e ad ad 5f fe 2d e0 72 c6 2d
       2.2946919e-11 -8.989029e-12 2.8918945e-11 2.2561009e-11
0000f0 78 92 2b af 81 60 d3 ae 47 09 8c 2e cf b2 03 ae
       -1.5604396e-10 -9.6123116e-11 6.368111e-11 -2.9944765e-11
000100 52 da ae ae c4 99 ac ae 52 0a 10 2f 94 7b e2 2e
       -7.9513854e-11 -7.848969e-11 1.310039e-10 1.0299242e-10
000110 29 1e ee 2e a7 cb 09 2f 05 dd 73 af e1 a2 e0 2e
       1.08283445e-10 1.2532429e-10 -2.2179243e-10 1.0215274e-10
000120 c3 14 cc 2e 94 34 7b 2d 30 63 df 2e 90 83 3d ad
       9.280534e-11 1.4279373e-11 1.0158485e-10 -1.0772619e-11
000130 8f cd 1f 2f e2 e8 bf 2c 48 1d b7 2e e7 5c 0c 2b
       1.4533995e-10 5.4544017e-12 8.327078e-11 4.986692e-13
000140 31 52 9b ae 55 37 49 af d5 5a be ac 8e ed 0b 2e
       -7.063184e-11 -1.8300501e-10 -5.410209e-12 3.1815932e-11
000150 89 c7 22 2e a8 d2 72 2e 4e a9 6f ae 45 ff ee ad
       3.7011758e-11 5.521153e-11 -5.449268e-11 -2.717083e-11
000160 4d c3 14 ad 53 2e a9 ad 4a 54 5a 2d 91 14 0f 2f
       -8.4561915e-12 -1.9233648e-11 1.2410581e-11 1.3013081e-10
000170 8a 10 c5 2c bc fd 72 af 9c 30 c9 ad 68 d5 77 af
       5.600913e-12 -2.2099916e-10 -2.2872641e-11 -2.2540336e-10
000180 6a ad ba 2e 56 e7 6f ad 28 4c 4c 2d 37 1d 4d ae
       8.489105e-11 -1.3636944e-11 1.16129675e-11 -4.663755e-11
000190 20 c9 9a ad ea 9f 35 ad f1 19 92 ad 45 97 40 ad
       -1.759709e-11 -1.0324167e-11 -1.6609799e-11 -1.0947525e-11
0001a0 3d 83 1d af e3 80 bf 2d 32 d0 86 2d b4 a3 6b ae
       -1.4325692e-10 2.1771423e-11 1.5326494e-11 -5.357821e-11
0001b0 83 42 28 ae ad dd 89 2d b7 1d 9c ad a6 0b e5 ad
       -3.8257852e-11 1.567354e-11 -1.7748343e-11 -2.6039459e-11
0001c0 0e 46 4a 2d 24 15 4d ae 42 65 a9 2d 5f 66 ea 2c
       1.1497926e-11 -4.663038e-11 1.9258043e-11 6.6620455e-12
0001d0 09 08 7e ac 5c 20 72 ae ed 6c 3b ae a8 fb eb 2e
       -3.6100031e-12 -5.505317e-11 -4.2615623e-11 1.0731266e-10
0001e0 4c 26 9f 2e 39 91 65 af e7 f7 21 af da 2b 68 2f
       7.237286e-11 -2.0879022e-10 -1.4730937e-10 2.1115856e-10
0001f0 e8 c6 2f 2f 99 14 12 2e 34 20 57 2f bc 9a 38 af
       1.5986823e-10 3.321485e-11 1.9565577e-10 -1.6789675e-10
000200 5b d3 e8 ad 68 cb 97 2e d0 cf 00 ae 4e 4f 9b ae
       -2.6469207e-11 6.902817e-11 -2.9288405e-11 -7.062671e-11
000210 ba af e4 ae da b0 ec 2e 78 4c 61 2f 0e a5 23 2e
       -1.0399455e-10 1.07634526e-10 2.0490798e-10 3.7208507e-11
000220 24 1b 7c 2f 96 69 85 af 47 a8 2f 2f af df 35 2f
       2.2928909e-10 -2.4267582e-10 1.5975941e-10 1.6541322e-10
000230 2a 43 93 ae 9a e1 35 2e 27 d0 d3 ad 03 26 0b 2f
       -6.696717e-11 4.135501e-11 -2.4080361e-11 1.2655481e-10
000240 e7 8a a2 2d f1 e8 12 2f 0b 5a 02 2d 98 9f 68 ae
       1.8478953e-11 1.336138e-10 7.409638e-12 -5.289244e-11
000250 60 5f 05 ad e4 32 20 af 55 79 32 2e fd f1 81 2e
       -7.581352e-12 -1.4569995e-10 4.058028e-11 5.9092266e-11
000260 85 ec 97 2e 65 19 d1 ad e6 84 ae ae d9 e4 e8 ac
       6.908699e-11 -2.3771827e-11 -7.9362114e-11 -6.6192438e-12
000270 ce 2a fa ac a3 2e 32 2e 5a 66 23 2d 8a 42 03 ae
       -7.1101796e-12 4.0513936e-11 9.288204e-12 -2.984505e-11
000280 6d bb 8c af c8 09 e4 ad 4b 3e 05 af af 18 18 ad
       -2.5599026e-10 -2.5924943e-11 -1.211841e-10 -8.6456805e-12
000290 73 e0 3f ad ea d8 a4 2d a6 8c 2b ad e4 e5 ce ae
       -1.0906931e-11 1.874097e-11 -9.751455e-12 -9.408632e-11
0002a0 a6 c3 14 ae 51 e3 a8 ad 76 2f 15 af 18 31 1d ae
       -3.3825075e-11 -1.9200338e-11 -1.3568333e-10 -3.574127e-11
0002b0 f6 80 e7 2e fd f0 b3 ae d5 07 8f 2d b5 35 f6 ad
       1.0527572e-10 -8.182786e-11 1.6260696e-11 -2.7990813e-11
0002c0 5a 1c 71 ac 53 67 12 2f 58 80 f3 2d 34 b7 58 2d
       -3.4263898e-12 1.3315331e-10 2.7682898e-11 1.2318858e-11
0002d0 0d 24 9c 2d 9c 97 cd 2d be 14 ed ac cc 78 49 2d
       1.7751156e-11 2.337313e-11 -6.738248e-12 1.14523495e-11
0002e0 6b 53 21 ae e3 ab c2 2d 5d 84 31 2e 24 12 00 2f
       -3.6681252e-11 2.213158e-11 4.0362703e-11 1.1647977e-10
0002f0 7d 9d 1c af 0c f6 b1 ae 52 76 0e 2e 2c e1 30 2c
       -1.4244068e-10 -8.092735e-11 3.239215e-11 2.51361e-12
000300 81 24 de 2e e0 52 8f 2f fb 33 73 af 13 17 e7 ae
       1.01018756e-10 2.6070435e-10 -2.2119188e-10 -1.05087626e-10
000310 c6 9c d2 ab 2d 2e fa ad 9e 8f b5 ae f0 3a 22 af
       -1.4964911e-12 -2.8442216e-11 -8.2564386e-11 -1.4754753e-10
000320 61 9d 8f 2d 0a ee cb 2e 32 0f 0b 2f 9b cd 1c 2f
       1.6327108e-11 9.2736555e-11 1.2647375e-10 1.4261163e-10
000330 71 d7 2a ae 6a a7 8f 2e 5a 6c 52 2d 35 cf ef ae
       -3.8844875e-11 6.532626e-11 1.1961177e-11 -1.0905269e-10
000340 92 da 51 2e db 0a 2d ae b3 8a c2 2d 4a 1f 94 ad
       4.7715228e-11 -3.9345287e-11 2.2116841e-11 -1.6839547e-11
000350 7c ba 3b 2e e2 16 7d ad 08 cd 89 af ea 36 88 af
       4.268451e-11 -1.4386466e-11 -2.5065838e-10 -2.4777275e-10
000360 40 c0 9a ad 55 78 d8 ac fa 0b 30 2e 90 c3 8e 2e
       -1.759315e-11 -6.1524488e-12 4.0028404e-11 6.492151e-11
000370 be 80 07 af 47 a9 b5 ae b2 73 49 ad 67 e2 14 ad
       -1.2323917e-10 -8.260997e-11 -1.1451217e-11 -8.463097e-12
000380 e8 3b b5 2d 1a 21 34 2d c1 f0 0d 2e cb cd 30 ae
       2.0603921e-11 1.0239165e-11 3.227352e-11 -4.0200548e-11
000390 1e c4 09 af a2 6b 64 af 4c 02 95 2f 81 f5 9b ad
       -1.2529752e-10 -2.0774718e-10 2.7104574e-10 -1.7730485e-11
0003a0 74 62 88 2d b7 c6 2a af d9 62 14 af 80 21 a5 ae
       1.5505132e-11 -1.5532008e-10 -1.349564e-10 -7.509282e-11
0003b0 97 87 42 af 4d 82 93 ad dc a8 ca ae ab bb 02 2f
       -1.7692368e-10 -1.676983e-11 -9.215892e-11 1.1890104e-10
0003c0 5a 76 b4 ad 9f 0e 68 ae b3 60 d0 2d 41 46 e5 ad
       -2.051619e-11 -5.276368e-11 2.3689805e-11 -2.6065485e-11
0003d0 cf 36 ae 2e e3 c3 0c ae b6 86 86 ae 95 b8 65 ae
       7.92234e-11 -3.2006297e-11 -6.117544e-11 -5.2232513e-11
0003e0 55 6f db 2d 8c f0 b5 2d ff b6 c9 2d ff 8d 2f ae
       2.4946859e-11 2.0684142e-11 2.2932321e-11 -3.991651e-11
0003f0 24 4b 49 ad 38 02 3e 2e 47 a5 9e 2e 95 dd f7 ad
       -1.1442212e-11 4.320297e-11 7.214367e-11 -2.8179051e-11

bias f4 [512]
000000 f4 cd ff af 1b 2e 10 b0 b4 e7 1f b0 64 b1 30 b0
       -4.6530568e-10 -5.2452415e-10 -5.8173133e-10 -6.4280514e-10
000010 be ef 43 b0 61 ea 5a b0 a6 05 77 b0 af 0a 8d b0
       -7.128128e-10 -7.964101e-10 -8.9866103e-10 -1.0262137e-09
000020 94 44 a3 b0 d4 a1 bf b0 ad dc e3 b0 cd f5 08 b1
       -1.1879302e-09 -1.3943073e-09 -1.6579144e-09 -1.9930326e-09
000030 c6 15 26 b1 ed 77 4a b1 06 a7 76 b1 48 12 95 b1
       -2.4168556e-09 -2.9463039e-09 -3.5892653e-09 -4.338549e-09
000040 d6 d7 b1 b1 ae 3c d1 b1 97 7b f2 b1 95 20 0a b2
       -5.1759157e-09 -6.089599e-09 -7.0571775e-09 -8.0400655e-09
000050 12 03 1b b2 51 eb 2c b2 20 7f 41 b2 70 f4 59 b2
       -9.0228855e-09 -1.0065222e-08 -1.1262983e-08 -1.2686641e-08
000060 8b 50 79 b2 fc 9f 91 b2 f1 fd ad b2 ee dd d3 b2
       -1.4512021e-08 -1.6952974e-08 -2.025533e-08 -2.4664555e-08
000070 72 67 01 b3 60 82 1f b3 9c 1d 43 b3 07 8f 71 b3
       -3.0129236e-08 -3.7138648e-08 -4.5428905e-08 -5.6242268e-08
000080 e1 d6 8f b3 25 5f ab b3 42 4f cc b3 f8 20 e5 b3
       -6.698043e-08 -7.980115e-08 -9.513907e-08 -1.06696405e-07
000090 05 c4 05 b4 d1 9c 25 b4 19 96 34 b4 02 61 31 b4
       -1.2457902e-07 -1.5423872e-07 -1.6818412e-07 -1.6519701e-07
0000a0 0d 6e c3 b3 31 f5 3b b4 91 5c 67 b4 4e 99 0b b4
       -9.100413e-08 -1.7504932e-07 -2.1547227e-07 -1.3001156e-07
0000b0 bb a7 3d b4 11 a2 de b4 29 be 2e b5 30 c9 51 b5
       -1.7663017e-07 -4.146864e-07 -6.509677e-07 -7.8151334e-07
0000c0 5e 99 65 b5 14 2e 83 b5 95 cf 92 b5 88 7e 86 b5
       -8.5532326e-07 -9.773671e-07 -1.0938262e-06 -1.0020603e-06
0000d0 d1 9c f6 b4 81 5d b4 b4 d8 5c 0c b4 68 f2 52 b4
       -4.593517e-07 -3.3595646e-07 -1.3072292e-07 -1.9645961e-07
0000e0 15 28 61 b4 24 ad 73 b4 7d aa 3b b4 6c e7 a5 b3
       -2.096934e-07 -2.2694127e-07 -1.7477755e-07 -7.7255066e-08
0000f0 75 2f 44 33 b7 ee 71 34 0b 55 e2 34 96 3f 25 35
       4.5677968e-08 2.2531718e-07 4.2157657e-07 6.155982e-07
000100 d7 aa 46 35 00 2c 5d 35 e2 73 78 35 26 10 7a 35
       7.400935e-07 8.2392944e-07 9.255583e-07 9.3155757e-07
000110 bf 81 53 35 ac b4 ed 34 2c 18 9d b4 70 ea 8d b5
       7.879243e-07 4.4276146e-07 -2.9261116e-07 -1.0573549e-06
000120 24 18 f6 b5 05 fd 2c b6 00 2d 4c b6 3a 8f 37 b6
       -1.8335454e-06 -2.5777274e-06 -3.0424562e-06 -2.7352494e-06
000130 e5 9c 0b b6 09 88 8a b5 1e 87 49 35 22 4b 2f 36
       -2.0803939e-06 -1.0321393e-06 7.5074956e-07 2.6120765e-06
000140 c2 7f 9d 36 5b e1 d8 36 03 74 06 37 04 1e 1e 37
       4.6938376e-06 6.4635365e-06 8.0140335e-06 9.424522e-06
000150 0a b2 3a 37 22 07 5f 37 6b d3 84 37 ed d4 9c 37
       1.1127917e-05 1.32934965e-05 1.5834075e-05 1.86958e-05
000160 39 5b b7 37 08 ef d3 37 5c ab f2 37 87 54 0a 38
       2.1857779e-05 2.5264468e-05 2.8928443e-05 3.2980486e-05
000170 1c d5 1d 38 e6 da 34 38 07 4d 50 38 a9 18 71 38
       3.763019e-05 4.311921e-05 4.96628e-05 5.7481844e-05
000180 f9 22 8c 38 eb 78 a3 38 b1 31 bf 38 0d 08 e0 38
       6.6822344e-05 7.7949684e-05 9.1168455e-05 0.00010682652
000190 4d 61 03 39 09 29 1a 39 e4 f1 34 39 60 75 54 39
       0.00012529381 0.00014701871 0.00017256249 0.00020261621
0001a0 2e 97 79 39 45 b5 92 39 6e 99 ac 39 c8 37 cb 39
       0.0002380281 0.00027982346 0.0003292071 0.00038760738
0001b0 fe 71 ef 39 f5 2a 0d 3a 29 92 26 3a 4b ae 44 3a
       0.00045670563 0.0005385124 0.0006354177 0.00075027783
0001c0 60 63 68 3a 7d 61 89 3a f3 8b a2 3a 1c 79 c0 3a
       0.00088649057 0.0010481324 0.0012401327 0.0014684531
0001d0 64 16 e4 3a 35 3b 07 3b 1f 62 20 3b 28 13 3e 3b
       0.0017401692 0.0020634655 0.0024472547 0.0029003117
0001e0 9c c4 60 3b 29 4c 84 3b 1e 7a 9a 3b 01 d1 b1 3b
       0.0034296876 0.0040373993 0.0047142645 0.0054265265
0001f0 c1 94 c7 3b 41 ce d5 3b 8a 48 d0 3b 5e 4b 9e 3b
       0.006090731 0.0065248315 0.0063563036 0.004830762
000200 7a a4 da af 54 59 fa af c1 56 0c b0 08 5b 1b b0
       -3.9770837e-10 -4.5538207e-10 -5.105499e-10 -5.6518035e-10
000210 23 88 2b b0 1d 3c 3e b0 ad c3 54 b0 2b aa 70 b0
       -6.24029e-10 -6.9207023e-10 -7.740322e-10 -8.7553315e-10
000220 a7 0a 8a b0 0f da a0 b0 85 66 be b0 75 99 e4 b0
       -1.0043849e-09 -1.1703508e-09 -1.3853457e-09 -1.6632798e-09
000230 19 dc 0a b1 10 08 2a b1 71 6a 50 b1 69 f0 7c b1
       -2.0206754e-09 -2.4742839e-09 -3.0328489e-09 -3.6807484e-09
000240 1e bf 96 b1 ce f3 af b1 79 09 c8 b1 a9 5e dd b1
       -4.387302e-09 -5.1208877e-09 -5.821843e-09 -6.442708e-09
000250 85 72 f2 b1 e9 b1 05 b2 47 8c 17 b2 16 15 34 b2
       -7.0561463e-09 -7.782071e-09 -8.821252e-09 -1.0482173e-08
000260 2f ff 60 b2 c9 c7 90 b2 b3 8a b8 b2 7b 13 dd b2
       -1.3096538e-08 -1.6854658e-08 -2.1483492e-08 -2.5736645e-08
000270 17 6c f2 b2 c3 a9 f8 b2 ff 55 f8 b2 a2 50 02 b3
       -2.8221661e-08 -2.8948199e-08 -2.8910106e-08 -3.034132e-08
000280 d7 ba 1a b3 ce 44 4e b3 ef c6 8c b3 d0 2f b4 b3
       -3.602585e-08 -4.802569e-08 -6.555444e-08 -8.3906e-08
000290 bb bb d0 b3 79 c1 d9 b3 b9 99 d2 b3 58 95 c3 b3
       -9.719903e-08 -1.01400424e-07 -9.806849e-08 -9.1075606e-08
0002a0 ab 2a c3 b3 19 ea d3 b3 b1 b9 f1 b3 80 55 13 b4
       -9.0881564e-08 -9.868035e-08 -1.1256214e-07 -1.3721547e-07
0002b0 71 61 3b b4 26 d4 5d b4 1b ef 89 b4 fc aa b2 b4
       -1.7451181e-07 -2.0659408e-07 -2.569221e-07 -3.327949e-07
0002c0 89 0a 01 b5 58 30 07 b5 95 84 75 b5 35 d7 90 b5
       -4.8071576e-07 -5.036177e-07 -9.1462545e-07 -1.079147e-06
0002d0 a4 bf 9e b5 f9 1a ae b5 d9 0a 6b b5 7a be d7 b4
       -1.1827692e-06 -1.297186e-06 -8.756011e-07 -4.018546e-07
0002e0 45 a2 42 b4 7a 21 5f b4 3d ce 64 b4 a6 e7 3d b3
       -1.8126691e-07 -2.0780672e-07 -2.1309184e-07 -4.4215675e-08
0002f0 25 8e 6d 34 3c 2b c4 34 4c 8e f3 34 fb f6 0e 35
       2.2124057e-07 3.6539302e-07 4.5365812e-07 5.3258526e-07
000300 0f 8b 24 35 20 20 3b 35 cd 35 54 35 d8 04 61 35
       6.129712e-07 6.9709677e-07 7.9054445e-07 8.382608e-07
000310 07 59 46 35 a3 4c 1d 35 19 30 d4 33 81 f7 2b b5
       7.38903e-07 5.859858e-07 9.880768e-08 -6.406263e-07
000320 bd 37 b9 b5 a7 6b 0b b6 57 cb 31 b6 2e 59 31 b6
       -1.3799796e-06 -2.0775276e-06 -2.6493415e-06 -2.6426965e-06
000330 4f c1 0c b6 26 93 ae b5 c4 01 47 34 03 81 08 36
       -2.0974146e-06 -1.3006836e-06 1.8533962e-07 2.0340674e-06
000340 6f cd 7d 36 d6 76 b3 36 3b 32 e2 36 df 1e 06 37
       3.7819516e-06 5.34845e-06 6.7411725e-06 7.99421e-06
000350 6a 91 1d 37 ff 6d 3b 37 6a f8 5f 37 b6 d8 84 37
       9.391786e-06 1.1171679e-05 1.3349674e-05 1.583654e-05
000360 47 15 9c 37 ab 4b b5 37 da 53 d0 37 76 31 ed 37
       1.8606557e-05 2.1612117e-05 2.4834579e-05 2.8275634e-05
000370 af 75 07 38 45 07 1b 38 9a 40 32 38 8a e7 4d 38
       3.229611e-05 3.696165e-05 4.2498672e-05 4.9091446e-05
000380 20 e6 6e 38 f1 1e 8b 38 2f 84 a2 38 66 43 be 38
       5.6957942e-05 6.6338e-05 7.749383e-05 9.07246e-05
000390 1a 13 df 38 f4 dd 02 39 82 99 19 39 68 55 34 39
       0.000106370266 0.0001248045 0.00014648403 0.00017197954
0003a0 57 d1 53 39 ff f2 78 39 a8 66 92 39 ff 52 ac 39
       0.00020200513 0.00023741646 0.00027923775 0.00032868233
0003b0 a2 fd ca 39 08 4c ef 39 58 26 0d 3a b9 a2 26 3a
       0.00038717414 0.0004564228 0.0005384437 0.0006356645
0003c0 2d dc 44 3a 1a ba 68 3a b2 a8 89 3a 22 f8 a2 3a
       0.00075096154 0.0008877829 0.0010502546 0.0012433568
0003d0 e2 11 c1 3a 11 dd e4 3a 51 ac 07 3b e3 c1 20 3b
       0.0014730061 0.0017460902 0.0020702074 0.0024529628
0003e0 2b 16 3e 3b 53 c6 5f 3b dc a2 82 3b e1 51 96 3b
       0.0029004912 0.003414531 0.0039866995 0.0045873974
0003f0 ff 91 a8 3b 38 58 b4 3b d9 77 af 3b 19 55 85 3b
       0.005144357 0.0055036806 0.005354863 0.0040689823

net.weight_ih_l0 f4 [512, 4]
000000 a6 47 3e 39 37 5f 20 39 32 91 41 b9 e3 3e 31 b9
       0.00018146503 0.0001529426 -0.00018460004 -0.00016903463
000010 67 df d9 39 a6 07 b7 39 d6 8b de b9 70 87 ca b9
       0.00041555913 0.00034910179 -0.00042447326 -0.0003862935
000020 4e f4 80 37 46 57 5e 37 83 9e 84 b7 71 b3 71 b7
       1.5372552e-05 1.3252551e-05 -1.5809439e-05 -1.4406499e-05
000030 8b 00 8f 39 f2 8e 70 39 00 8e 91 b9 3a b8 85 b9
       0.0002727549 0.00022941435 -0.00027762353 -0.00025504996
000040 f1 cb c3 3a 40 7c a4 3a fc d6 c6 ba 80 29 b6 ba
       0.0014938099 0.0012549236 -0.0015170272 -0.0013897866
000050 17 07 da b5 9e 35 b5 b5 ea 13 e0 35 a0 4a cc 35
       -1.6244329e-06 -1.3501156e-06 1.6695096e-06 1.5220903e-06
000060 cd 6c 0a 3a 71 a3 e8 39 f9 9a 0c ba 37 dc 00 ba
       0.0005280495 0.00044372262 -0.0005363669 -0.0004915627
000070 35 b3 eb 3a fe c9 c6 3a 6e 8b ef ba 4a 5c db ba
       0.0017982485 0.00151664 -0.0018275806 -0.0016735878
000080 ac 34 2a 3a c9 26 0f 3a fb 70 2d ba e2 3c 1e ba
       0.0006492834 0.00054607965 -0.00066162617 -0.0006036294
000090 58 56 ca 39 5e 97 a9 39 ed 11 d3 b9 25 84 be b9
       0.00038592773 0.0003234697 -0.00040258412 -0.0003633808
0000a0 60 89 42 33 3b 9c 22 33 78 d4 45 b3 cc 24 32 b3
       4.5294087e-08 3.7860655e-08 -4.6060876e-08 -4.147732e-08
0000b0 78 9f e4 39 1f c1 bf 39 6d a2 e7 b9 b0 d8 d3 b9
       0.00043606362 0.00036574245 -0.0004418077 -0.000404065
0000c0 87 cb dd 38 de 53 bc 38 43 6b e3 b8 f6 f7 cf b8
       0.00010576011 8.98016e-05 -0.000108441825 -9.9167155e-05
0000d0 fc c3 f9 34 25 bf d2 34 41 b0 03 b5 cb 4d e9 b4
       4.6522462e-07 3.9254624e-07 -4.9057786e-07 -4.3456234e-07
0000e0 c7 f8 20 3a f3 56 07 3a 8f b5 23 ba 4a 5f 16 ba
       0.00061405863 0.0005162798 -0.0006245011 -0.0005736245
0000f0 a5 47 84 3a 23 44 5f 3a 12 ef 86 ba f0 76 76 ba
       0.0010092153 0.0008516928 -0.0010294637 -0.00094018783
000100 62 fe a6 38 82 6f 8c 38 c2 a9 aa b8 cc 6b 9e b8
       7.962879e-05 6.69649e-05 -8.1378515e-05 -7.554106e-05
000110 a1 61 7e 3a 3d e1 55 3a 64 dc 80 ba da b2 6b ba
       0.0009703879 0.00081588683 -0.0009831307 -0.00089911895
000120 90 82 7c 39 31 bb 52 39 1e 17 80 b9 3e 42 6a b9
       0.00024081231 0.00020096895 -0.00024431286 -0.00022340656
000130 82 1c 03 3a e4 4f db 39 3d 44 05 ba f7 90 f4 b9
       0.00050015014 0.00041830458 -0.00050837157 -0.00046647314
000140 92 46 08 3a 94 92 e4 39 0e 98 0a ba 98 aa fd b9
       0.0005198504 0.00043596758 -0.000528694 -0.00048383023
000150 21 0c 36 3a 8f 6b 19 3a 20 bd 39 ba 08 2b 2a ba
       0.00069445564 0.00058525143 -0.0007085372 -0.00064913975
000160 bf bc 50 39 93 b2 2b 39 91 10 52 b9 d5 c6 40 b9
       0.00019906739 0.00016374355 -0.00020033332 -0.00018384618
000170 e3 a9 75 39 bc fc 4c 39 e1 cf 77 b9 70 68 65 b9
       0.00023428308 0.00019549107 -0.00023633197 -0.00021878048
000180 ce dc 92 38 c9 f4 77 38 a4 28 95 b8 a8 56 88 b8
       7.0029506e-05 5.9117363e-05 -7.1124436e-05 -6.501126e-05
000190 f8 a9 f6 3a da 5b d0 3a b2 b4 fa ba cc 58 e5 ba
       0.0018818965 0.0015896515 -0.0019127338 -0.0017497777
0001a0 8b 51 96 3a 9e bf 7c 3a f1 ca 98 ba 2f b1 8b ba
       0.0011468393 0.00096415903 -0.0011657161 -0.0010657663
0001b0 0c 5b c0 38 62 a0 a1 38 06 19 c4 b8 c6 8b b4 b8
       9.172232e-05 7.706952e-05 -9.350669e-05 -8.609104e-05
0001c0 9b ac 77 3a b4 f0 4f 3a 5a 4d 7c ba fa 37 66 ba
       0.00094480225 0.0007932291 -0.00096245634 -0.0008782145
0001d0 60 71 a3 3a 44 d1 88 3a 16 43 a6 ba 18 15 98 ba
       0.0012469701 0.0010438343 -0.0012684788 -0.0011602966
0001e0 8e 38 3f 3a b1 5a 21 3a 43 4c 42 ba 59 c3 31 ba
       0.0007294499 0.00061551767 -0.00074118766 -0.0006781123
0001f0 2c bc f6 38 59 18 cf 38 d2 a1 fb b8 b5 51 e5 b8
       0.00011765244 9.875064e-05 -0.00011998754 -0.0001093479
000200 12 7d 1d 39 ca 1f 06 39 24 88 21 b9 57 83 14 b9
       0.00015019279 0.00012791078 -0.00015404873 -0.00014163308
000210 36 14 f3 39 69 61 c9 39 4a 82 f6 b9 1b 73 e0 b9
       0.0004636363 0.00038410284 -0.0004701785 -0.0004281037
000220 03 7b cb 36 b8 e3 a9 36 b8 2e d0 b6 7d 46 bf b6
       6.064192e-06 5.0631024e-06 -6.204322e-06 -5.7004495e-06
000230 13 22 08 3a de 79 e5 39 5c ce 09 ba be f2 fa b9
       0.0005193066 0.00043769082 -0.0005256885 -0.00047864573
000240 65 01 c7 3a 87 d5 a7 3a 27 75 ca ba 6b d5 b8 ba
       0.0015182911 0.0012804725 -0.0015446291 -0.001410169
000250 3b 25 31 3a 3c c9 15 3a c7 1c 34 ba 11 a6 24 ba
       0.0006757562 0.0005713885 -0.0006870743 -0.00062808493
000260 e5 44 60 39 f1 ab 3b 39 23 2b 63 b9 9c f9 4f b9
       0.0002138797 0.00017897763 -0.00021664477 -0.00019834045
000270 a1 ff d6 37 89 7f b0 37 ef 85 d8 b7 86 a4 cd b7
       2.5629824e-05 2.1040223e-05 -2.5811574e-05 -2.4514517e-05
000280 8c ee a7 39 05 cf 8d 39 ad 4a ab b9 3b a4 9c b9
       0.00032030453 0.00027047857 -0.000326713 -0.00029877
000290 d3 bd 5f 3a 5c de 3c 3a 1f 32 63 ba 29 bc 4f ba
       0.0008535061 0.0007204765 -0.00086668314 -0.00079244614
0002a0 6b c7 84 3a 71 0e 5f 3a b7 15 87 ba c7 f5 76 ba
       0.0010130232 0.0008508927 -0.0010306154 -0.0009420779
0002b0 33 d1 b6 39 58 9c 99 39 2c 05 ba b9 a7 9a aa b9
       0.0003486961 0.0002929892 -0.00035480538 -0.00032540152
0002c0 8c e0 34 34 48 a0 16 34 7b fb 36 b4 d7 51 27 b4
       1.6845496e-07 1.4028149e-07 -1.7041559e-07 -1.558286e-07
0002d0 9a 4d 2c 36 de eb 0f 36 06 bf 22 b6 7a 6e 19 b6
       2.5675167e-06 2.1445953e-06 -2.4251071e-06 -2.2863082e-06
0002e0 6c c4 2c 38 d3 26 10 38 ee 04 30 b8 de 5b 28 b8
       4.1190928e-05 3.4368433e-05 -4.196626e-05 -4.013988e-05
0002f0 77 e1 f2 36 7f 2b c4 36 79 57 f2 b6 20 dd d8 b6
       7.2384096e-06 5.846319e-06 -7.222345e-06 -6.463044e-06
000300 5f 01 b1 39 48 e4 93 39 b2 8d b3 b9 e6 0e a5 b9
       0.00033761092 0.00028208108 -0.00034247112 -0.00031482353
000310 2f c6 91 3a d0 dd 75 3a 98 29 94 ba d5 e7 87 ba
       0.0011121685 0.0009379061 -0.00113039 -0.0010368774
000320 30 8e 7d 3a ec 36 55 3a 8e c6 80 ba f3 e8 6b ba
       0.00096723717 0.0008133489 -0.0009824799 -0.0008999251
000330 24 bb af 2e e0 ef 90 2e 52 2d b3 ae d6 32 a3 ae
       7.9913215e-11 6.590972e-11 -8.148028e-11 -7.421412e-11
000340 6a 44 4c 3a d2 0c 2c 3a 5a 9b 4f ba 30 d5 3d ba
       0.0007792177 0.00065631897 -0.00079195725 -0.0007241545
000350 d9 c4 14 3a 32 48 fa 39 eb 3b 17 ba a8 97 0a ba
       0.00056750845 0.00047737506 -0.00057691213 -0.0005286881
000360 d9 a0 05 39 8a cc e2 38 3e 00 0c b9 dd 92 fe b8
       0.00012743789 0.00010814618 -0.0001335153 -0.00012139019
000370 78 9d 3d 3a 18 71 1f 3a bf bd 40 ba 73 75 30 ba
       0.00072332425 0.0006082221 -0.0007352493 -0.00067313685
000380 96 d6 cc 38 1d 20 ab 38 37 cb cd b8 fe 1f bd b8
       9.767448e-05 8.159897e-05 -9.8130135e-05 -9.018181e-05
000390 99 cc 29 3b 8f 1f 0f 3b ef a4 2c bb 7e a7 1d bb
       0.0025909303 0.0021838879 -0.0026343425 -0.0024056132
0003a0 14 3a 29 3a 9d d8 0e 3a 22 10 2c ba 22 80 1d ba
       0.00064554927 0.0005449148 -0.0006563683 -0.0006008168
0003b0 c4 62 6b 3a b4 6f 46 3a f9 e7 6f ba 51 09 5c ba
       0.0008979256 0.00075697456 -0.0009151693 -0.0008393722
0003c0 4b e8 d4 36 f2 bc b1 36 b0 3e d9 b6 ed 15 c7 b6
       6.345135e-06 5.297007e-06 -6.4744017e-06 -5.9332147e-06
0003d0 5d 0a 2d 38 b3 12 10 38 64 74 31 b8 44 70 20 b8
       4.1256066e-05 3.434969e-05 -4.2308486e-05 -3.8251528e-05
0003e0 0d f7 9b 39 77 42 81 39 37 18 9d b9 44 33 90 b9
       0.0002974797 0.00024654318 -0.00029963415 -0.00027504016
0003f0 e5 f7 23 3b 99 1a 0a 3b 3a 74 26 bb 9e 8d 18 bb
       0.0025019583 0.0021072982 -0.0025398866 -0.002327777

net.weight_hh_l0 f4 [512, 128]
000000 5f 56 97 37 57 62 e0 37 cd d6 af b6 57 b4 b7 37
       1.8040822e-05 2.6748674e-05 -5.2404125e-06 2.1899277e-05
000010 cb 85 57 38 93 b2 05 b5 09 13 03 b8 c2 9d 69 38
       5.13846e-05 -4.980622e-07 -3.125056e-05 5.5698452e-05
000020 22 65 0f b8 ba 18 d9 37 24 c3 8f b4 5c 10 e5 37
       -3.4188044e-05 2.587993e-05 -2.677781e-07 2.7306545e-05
000030 c3 29 66 b7 c4 2b 7a 35 99 ff 08 38 2f 4b 31 b8
       -1.3718792e-05 9.3195945e-07 3.266297e-05 -4.227011e-05
000040 fb cf 4a b7 25 51 33 b8 32 e2 aa 37 55 e5 f6 b7
       -1.20885625e-05 -4.2752497e-05 2.037091e-05 -2.9432276e-05
000050 7e b9 00 38 cf f3 13 b8 1a 19 9e b7 fa 32 ab 37
       3.069033e-05 -3.5274596e-05 -1.8846757e-05 2.0408526e-05
000060 57 f3 3a 37 94 5c 73 38 91 9f 3e 38 c9 dc 59 b7
       1.1143121e-05 5.8021935e-05 4.5448138e-05 -1.29856135e-05
000070 ca 25 28 38 18 47 42 b8 32 da 17 b8 ce 74 70 37
       4.0089515e-05 -4.6319416e-05 -3.6204416e-05 1.43323105e-05
000080 02 b0 89 b7 0d a9 ef 37 06 9a 5c 36 f0 fa f7 37
       -1.6413633e-05 2.856974e-05 3.2872208e-06 2.9561546e-05
000090 94 5c 5c 38 75 39 10 38 3e 64 a1 b7 4a 7d e0 36
       5.2538308e-05 3.4385786e-05 -1.9239375e-05 6.690306e-06
0000a0 2d 96 c9 37 82 b9 26 38 9a ee 31 b8 8b 37 cd b7
       2.4030998e-05 3.975025e-05 -4.2422304e-05 -2.4463769e-05
0000b0 7b 0a 06 35 a7 e7 0d 36 5a d5 10 b7 03 9f 72 36
       4.993414e-07 2.1145477e-06 -8.632744e-06 3.6153367e-06
0000c0 f2 ef ca 37 c0 ef 3a b8 30 22 2b b8 db 61 4d b2
       2.419201e-05 -4.456914e-05 -4.0801417e-05 -1.195482e-08
0000d0 2e 12 1c b8 45 ba 03 b8 26 2e 7d 37 f8 56 16 38
       -3.721023e-05 -3.140631e-05 1.509072e-05 3.5843783e-05
0000e0 37 49 5d 37 20 a7 8c b8 6f c1 09 38 8d 57 26 38
       1.3189673e-05 -6.70685e-05 3.2843494e-05 3.9659022e-05
0000f0 13 e7 60 b6 d1 ca 0e b7 37 61 bf 37 87 d0 8e 38
       -3.3513104e-06 -8.511081e-06 2.2814243e-05 6.809929e-05
000100 9a c4 13 37 4b 46 28 38 b9 ed 23 b7 3c bd f7 b6
       8.807658e-06 4.0119787e-05 -9.770906e-06 -7.3832034e-06
000110 78 ba 18 38 0e a3 84 b4 da 3b 2f b8 17 85 da 37
       3.6413287e-05 -2.4705554e-07 -4.1778992e-05 2.60496e-05
000120 43 5e 8c 37 c1 82 14 b7 e3 76 51 35 51 00 26 38
       1.6733195e-05 -8.851931e-06 7.803157e-07 3.957778e-05
000130 af 64 aa b7 84 87 49 36 1b 62 02 37 3c 4a f4 32
       -2.0312464e-05 3.0030214e-06 7.771446e-06 2.8439096e-08
000140 ad af 7c 38 da d3 39 38 e0 4f 32 b7 27 95 93 b5
       6.0245093e-05 4.430474e-05 -1.0628224e-05 -1.0995763e-06
000150 ab 45 37 38 29 60 e3 b6 8d 29 47 37 fe a5 d0 b7
       4.3695483e-05 -6.7763217e-06 1.1870999e-05 -2.4872828e-05
000160 f7 14 68 b7 94 ae 6e b7 73 88 19 38 d4 00 b1 37
       -1.3833159e-05 -1.4226553e-05 3.660512e-05 2.110043e-05
000170 6b 7c e5 37 67 3c 3b b8 dd 04 88 b5 63 d6 03 37
       2.7356864e-05 -4.464053e-05 -1.0134205e-06 7.858124e-06
000180 fd 8c c8 b7 04 7f 04 38 11 0e 82 b7 92 f5 55 38
       -2.390751e-05 3.1589545e-05 -1.5503758e-05 5.1011863e-05
000190 f4 72 e5 b2 da 20 76 37 55 fb fe b7 33 f2 3a b8
       -2.6711383e-08 1.46703915e-05 -3.0396195e-05 -4.457142e-05
0001a0 60 d8 0d b8 69 27 5d b8 6f 56 1d b8 a9 99 18 38
       -3.3818535e-05 -5.272721e-05 -3.7512214e-05 3.638273e-05
0001b0 e1 27 b6 b7 bc 3a 30 b8 9c 16 6a 38 6c 96 a2 38
       -2.171466e-05 -4.201637e-05 5.5811004e-05 7.75278e-05
0001c0 78 78 6d 38 4a 25 9c 36 c4 d0 22 37 24 cc 93 b7
       5.66174e-05 4.6535033e-06 9.7045595e-06 -1.7618826e-05
0001d0 5a aa 33 38 c9 c7 a8 b5 dc 47 53 38 d8 2a a4 37
       4.2835578e-05 -1.257512e-06 5.0373244e-05 1.9570274e-05
0001e0 78 0d 4a 38 16 22 07 36 35 2e 38 36 a2 dc 9b 36
       4.8173097e-05 2.0136408e-06 2.7445033e-06 4.645045e-06
0001f0 f0 ac 22 37 f1 b5 99 b7 b5 9c 67 38 e9 2f 90 37
       9.696218e-06 -1.8323744e-05 5.5220637e-05 1.7188448e-05
000200 ae 5b 1d 38 6d ab 69 38 6e 2f 36 b7 e6 3d 3f 38
       3.75171e-05 5.571118e-05 -1.0859088e-05 4.5595596e-05
000210 c7 a4 de 38 b8 87 61 b5 ee 5c 88 b8 81 3f f0 38
       0.00010616477 -8.401653e-07 -6.502295e-05 0.0001145592
000220 2c 0a 95 b8 6f 0e 60 38 8d 07 1e b5 ef 4b 6e 38
       -7.106768e-05 5.3419204e-05 -5.8870575e-07 5.681434e-05
000230 5a cd ee b7 27 4e 00 36 8f 8a 8d 38 fb c8 b6 b8
       -2.8467435e-05 1.9118977e-06 6.7492125e-05 -8.715872e-05
000240 15 d0 d2 b7 b0 41 bb b8 28 d4 31 38 78 b5 80 b8
       -2.5130847e-05 -8.92909e-05 4.2397674e-05 -6.137317e-05
000250 73 a1 85 38 07 94 99 b8 08 97 23 b8 0b 26 32 38
       6.3720065e-05 -7.323181e-05 -3.9002887e-05 4.2473937e-05
000260 59 f9 c2 37 17 ed fb 38 e7 3f c6 38 09 af e1 b7
       2.3242714e-05 0.00012012774 9.4532785e-05 -2.6903597e-05
000270 bd 3d ae 38 a8 93 c8 b8 de f1 9d b8 3b 84 fa 37
       8.308466e-05 -9.564246e-05 -7.531395e-05 2.9863897e-05
000280 8a c2 0e b8 b3 88 7a 38 71 6b e6 36 8c 97 80 38
       -3.4036617e-05 5.9731956e-05 6.867042e-06 6.1317434e-05
000290 2b 54 e4 38 58 f7 95 38 12 72 27 b8 05 0d 69 37
       0.00010887565 7.150945e-05 -3.992214e-05 1.3890914e-05
0002a0 17 80 51 38 a5 43 ad 38 93 df b7 b8 35 41 55 b8
       4.9948776e-05 8.2618826e-05 -8.767764e-05 -5.0843886e-05
0002b0 46 fe 8c 35 6c 01 92 36 a6 44 95 b7 22 68 fe 36
       1.0504816e-06 4.3513046e-06 -1.7794151e-05 7.5819125e-06
0002c0 13 a6 52 38 d6 60 c1 b8 a3 eb b1 b8 53 f9 d4 b2
       5.022257e-05 -9.220994e-05 -8.4839085e-05 -2.4793428e-08
0002d0 78 0d a2 b8 ce 8f 88 b8 4b c4 03 38 ee 53 9c 38
       -7.727271e-05 -6.511771e-05 3.1415646e-05 7.454293e-05
0002e0 55 c2 e5 37 4b 42 11 b9 4d 98 8e 38 a8 25 ac 38
       2.738942e-05 -0.00013852974 6.799456e-05 8.208613e-05
0002f0 bc 93 e7 b6 f1 5f 94 b7 60 86 47 38 c7 0e 14 39
       -6.901535e-06 -1.7687651e-05 4.7570444e-05 0.00014119885
000300 4c 77 99 37 5f 86 ae 38 cb 98 aa b7 22 f3 80 b7
       1.8294573e-05 8.321995e-05 -2.0336729e-05 -1.5372007e-05
000310 21 4f 9d 38 78 0f 0a b5 4e fd b5 b8 1a 28 62 38
       7.501082e-05 -5.1431516e-07 -8.677934e-05 5.3919946e-05
000320 4d 63 12 38 1c 2e 9b b7 9f 6f dc 35 48 f0 ab 38
       3.4901594e-05 -1.8498911e-05 1.6423763e-06 8.198671e-05
000330 59 fe 2f b8 ea 18 d2 36 c6 cc 87 37 92 5e 7f 33
       -4.196013e-05 6.261388e-06 1.618861e-05 5.9457825e-08
000340 1e 00 03 39 5e a5 c0 38 6d b9 b8 b7 60 68 1a b6
       0.00012493177 9.1860755e-05 -2.2020855e-05 -2.3008542e-06
000350 b2 75 bd 38 51 d9 6c b7 63 e2 cf 37 74 34 59 b8
       9.034145e-05 -1.4117294e-05 2.4781742e-05 -5.1785682e-05
000360 b7 23 f1 b7 21 c2 f7 b7 78 35 9f 38 7d 5d 37 38
       -2.874607e-05 -2.9535093e-05 7.59167e-05 4.3717668e-05
000370 92 d5 6e 38 0b 0f c1 b8 ad b0 0e b6 33 da 88 37
       5.6942525e-05 -9.205759e-05 -2.1262488e-06 1.631407e-05
000380 79 0c 50 b8 75 c1 88 38 4f 80 07 b8 8a f2 dd 38
       -4.960268e-05 6.5210195e-05 -3.2306005e-05 0.000105832776
000390 09 0a 79 b3 d3 dd ff 37 10 71 84 b8 6e d1 c2 b8
       -5.7983957e-08 3.0501664e-05 -6.31531e-05 -9.28965e-05
0003a0 82 7a 93 b8 c0 67 e4 b8 a4 7b a3 b8 0b 59 9e 38
       -7.032325e-05 -0.00010891212 -7.7954755e-05 7.550613e-05
0003b0 49 34 3c b8 28 3c b7 b8 b8 9d f2 38 08 1a 28 39
       -4.4871387e-05 -8.737325e-05 0.000115688366 0.00016031426
0003c0 ef ac f4 38 59 9c 23 37 b2 eb a9 37 0f 47 19 b8
       0.00011667038 9.75196e-06 2.0256124e-05 -3.654422e-05
0003d0 7e 74 bb 38 8a 55 2f b6 67 f8 da 38 13 87 2a 38
       8.938553e-05 -2.6126822e-06 0.000104413186 4.0656956e-05
0003e0 c3 60 d1 38 9b 83 8d 36 7e a4 c2 36 ef ac 22 37
       9.98392e-05 4.2174483e-06 5.8008e-06 9.696217e-06
0003f0 db 6d a8 37 10 df 1e b8 27 c2 f0 38 d8 34 16 38
       2.0078316e-05 -3.787788e-05 0.000114802555 3.5812e-05

net.bias_ih_l0 f4 [512]
000000 b0 66 44 3a f6 05 bd 3a 6a fa 6e 38 e6 0c 85 3a
       0.0007492108 0.0014421332 5.6976838e-05 0.0010150939
000010 27 ff a3 3b 1d d3 ba 36 75 e4 23 3b b4 ef 9e 3b
       0.0050047818 5.567809e-06 0.0025007997 0.004850352
000020 a4 94 32 3b 12 a6 a4 3a 19 5e 4a 34 a2 d0 d9 3a
       0.0027249241 0.00125617 1.8846949e-07 0.0016617964
000030 8e ac da 39 80 88 fa 35 90 ff ff 3a 9f 21 65 3b
       0.00041708763 1.8666178e-06 0.001953112 0.0034962667
000040 58 2d ad 39 27 3e a4 3b 29 46 76 3a 2a b0 d5 3a
       0.00033030915 0.005012292 0.000939461 0.0016303111
000050 f1 69 12 3b a4 d9 34 3b 27 b7 4f 3a 6e e3 6d 3a
       0.0022340978 0.0027595544 0.0007923715 0.0009074722
000060 a7 f5 95 39 d9 fe f9 3b 1e 6f 9e 3b a4 59 d2 39
       0.0002860252 0.007629257 0.0048350235 0.0004012111
000070 ea 34 48 3b c0 8a 77 3b de cd 4b 3b 0a 4d 00 3a
       0.0030549117 0.003777191 0.0031098048 0.0004894292
000080 71 4a f8 39 78 86 f1 3a 64 30 c9 37 8d 59 d7 3a
       0.0004735771 0.0018426916 2.39836e-05 0.0016429886
000090 b5 f9 cf 3b 4f 3f 2e 3b a8 34 52 3a b1 d0 b0 38
       0.006346906 0.0026588028 0.00080187107 8.431206e-05
0000a0 17 a7 b4 3a 6f bc 7e 3b fd 3d 7d 3b 2e 6d a6 3a
       0.0013782707 0.003886964 0.0038641684 0.0012697333
0000b0 7c 17 3e 35 37 99 2c 37 4f 18 f6 38 14 34 05 38
       7.081469e-07 1.0287672e-05 0.00011734722 3.1758173e-05
0000c0 87 d9 a2 3a 32 88 8c 3b 1a c6 5f 3b c5 40 a4 2f
       0.0012424447 0.0042886967 0.0034145177 2.9877448e-10
0000d0 9e d0 4e 3b b3 a6 04 3b 31 cd 07 3a a8 48 3f 3b
       0.003155745 0.0020240962 0.0005180417 0.0029187594
0000e0 97 2a c8 39 06 72 09 3c 42 9a 01 3b fc 22 4b 3b
       0.00038178705 0.008389002 0.0019775783 0.0030996194
0000f0 ca 00 c8 37 07 a8 1e 39 65 ad 8b 3a 25 cd 31 3c
       2.3842225e-05 0.00015130649 0.0010656534 0.010852133
000100 ad cf 61 39 2c 73 6f 3b 55 41 60 39 d7 4a f0 38
       0.00021535037 0.0036537154 0.00021386643 0.00011458032
000110 49 40 00 3b e3 bb 18 34 0b af 80 3b 99 70 b9 3a
       0.0019569567 1.4224456e-07 0.0039271167 0.0014147937
000120 b8 ea 18 3a ed d9 4d 39 3f 7a c0 35 b5 6c 46 3b
       0.00058333157 0.00019631507 1.4340693e-06 0.0030277197
000130 bd 8c 3f 3a 03 34 b1 37 ba d7 1d 39 7d 9f 03 31
       0.00073070434 2.1124264e-05 0.00015053051 1.9153668e-09
000140 c8 08 ff 3b ba 29 9b 3b c5 ad 82 39 b3 5e 48 36
       0.007783029 0.004735199 0.00024925 2.9857445e-06
000150 42 60 75 3b 95 0c d5 38 ca 9f a3 39 3f 32 a7 3a
       0.0037441407 0.00010158975 0.00031208835 0.0012756063
000160 b7 db ce 39 d5 ee cd 39 61 36 34 3b 83 56 84 3a
       0.00039455082 0.0003927859 0.0027498233 0.0010096583
000170 8c 01 ab 3a ff 21 72 3b 13 c8 30 36 95 55 10 39
       0.0013046726 0.0036946533 2.6342502e-06 0.00013764792
000180 b5 01 93 3a 7a d6 f9 3a 07 a5 fb 39 ad a8 c7 3b
       0.0011215719 0.0019061111 0.00047997406 0.0060931058
000190 3e b6 8d 31 25 17 0b 3a ba 40 0e 3b 9e 5c a4 3b
       4.1243586e-09 0.0005305878 0.002170606 0.0050159236
0001a0 31 e5 37 3b 39 19 9e 3b ee 7b 5b 3b 89 af 2e 3b
       0.0028060193 0.004824784 0.0033490616 0.002665492
0001b0 2d cd 70 3a e2 39 83 3b 1f de d0 3b 3d 70 32 3c
       0.0009185847 0.004004703 0.006374135 0.0108910175
0001c0 d8 1a c8 3b ce 06 54 38 81 6a 7d 39 25 07 21 3a
       0.0061067156 5.0551076e-05 0.00024167636 0.0006142727
0001d0 ac d2 be 3b 4d df 3c 36 56 6e af 3b 2a 04 5b 3a
       0.005823454 2.8144161e-06 0.0053537292 0.00083548075
0001e0 a7 2e 9f 3b ee 2a 30 37 22 3d 9b 37 f1 4c 55 38
       0.0048578563 1.0500413e-05 1.8505907e-05 5.0854815e-05
0001f0 48 5a 37 39 ac c6 2b 3a 85 77 0a 3c 5e 2c 19 3a
       0.00017485872 0.0006552737 0.008451347 0.0005843098
000200 87 3c 31 3a c7 13 ab 3a 9d d1 56 38 b7 31 70 3a
       0.00067610334 0.0013052159 5.1216794e-05 0.00091626815
000210 e4 2a 9a 3b 4c d4 9e 36 e8 16 16 3b a8 7d 8c 3b
       0.00470482 4.7334815e-06 0.0022901837 0.0042874403
000220 a1 19 1f 3b 9a 0a 95 3a 84 d0 37 34 97 c8 c3 3a
       0.002427675 0.0011370957 1.711906e-07 0.00149371
000230 25 80 c5 39 1b 9e e1 35 08 e0 e6 3a a5 09 50 3b
       0.00037670243 1.6809821e-06 0.0017614374 0.003174403
000240 db e3 9b 39 47 c7 99 3b c0 12 5e 3a 56 95 c1 3a
       0.0002973367 0.004692945 0.0008471422 0.0014769237
000250 5b ee 02 3b 24 02 26 3b 58 d5 39 3a 09 19 56 3a
       0.0019978497 0.0025330866 0.00070889806 0.00081671827
000260 01 a8 86 39 f2 00 a2 3b c0 6e 8b 3b 96 10 be 39
       0.00025683644 0.0049439603 0.004255146 0.00036251982
000270 b5 e6 35 3b 8f 7f 60 3b 22 cf 42 3b b8 68 e5 39
       0.002775592 0.0034255718 0.0029725512 0.00043756305
000280 fd 96 e0 39 ee 24 d9 3a ee aa b4 37 76 11 c3 3a
       0.00042837104 0.0016566792 2.1537267e-05 0.0014882523
000290 aa 53 c2 3b 81 e6 1d 3b 6d 09 3d 3a 5f 70 9f 38
       0.0059303837 0.002409369 0.00072111824 7.6026416e-05
0002a0 ee 0c 9d 3a b3 79 50 3b 10 ba 67 3b 37 38 96 3a
       0.0011982003 0.003181082 0.0035358705 0.0011460845
0002b0 98 fc 29 35 8d 22 1b 37 27 4f de 38 88 54 ed 37
       6.332498e-07 9.246764e-06 0.00010600528 2.8291965e-05
0002c0 90 e2 92 3a e3 4d 81 3b f1 11 4c 3b ea 3b 93 2f
       0.0011206437 0.0039460524 0.0031138624 2.6781716e-10
0002d0 2b 75 3b 3b e0 24 f0 3a 72 1b f4 39 7a d5 2d 3b
       0.0028603773 0.0018321536 0.00046559755 0.0026524947
0002e0 0e ab b3 39 cb d3 ed 3b a3 7f ea 3a 3b cb 3d 3b
       0.00034268986 0.0072579137 0.0017890822 0.0028960246
0002f0 d4 8e b3 37 c2 aa 0e 39 5c 50 7c 3a bf 58 19 3c
       2.1404972e-05 0.00013605788 0.00096250116 0.009359538
000300 a2 dd 4c 39 f4 58 4b 3b f6 5a 49 39 34 61 d8 38
       0.0001953752 0.0031028362 0.0001920274 0.00010317788
000310 5e ba e9 3a e8 9e 07 34 bd 20 73 3b 86 e9 a9 3a
       0.0017832031 1.2630665e-07 0.003709837 0.0012963272
000320 f7 27 0a 3a 4f 67 39 39 d3 47 ab 35 6a 63 3e 3b
       0.00052702375 0.0001768146 1.2761396e-06 0.0029050955
000330 1f 7f 30 3a 5a 7d 9e 37 a1 a7 0d 39 2c 72 ec 30
       0.00067328097 1.889344e-05 0.00013509254 1.720371e-09
000340 c9 d0 d2 3b 44 78 8a 3b 04 3a 6b 39 9a b0 32 36
       0.0064335805 0.0042257626 0.00022432959 2.6626863e-06
000350 65 d7 5f 3b f8 e4 be 38 4b d2 92 39 d9 c3 96 3a
       0.0034155485 9.102555e-05 0.0002800397 0.0011502459
000360 20 2d ba 39 f3 a0 b9 39 81 3a 23 3b fe ed 6d 3a
       0.00035510305 0.00035405866 0.0024906697 0.0009076296
000370 6a 83 9b 3a 55 84 7d 3b 18 08 1e 36 2f 8e 01 39
       0.0011864726 0.0038683612 2.3548546e-06 0.00012355366
000380 6f c8 84 3a e1 33 e2 3a b3 e9 e2 39 09 2c b7 3b
       0.0010130535 0.0017257893 0.000432802 0.005589966
000390 30 7e 76 31 17 dc fa 39 54 f7 ff 3a d4 33 a9 3b
       3.586944e-09 0.00047847696 0.0019528666 0.005163649
0003a0 c7 75 26 3b fd 38 90 3b 93 f7 4f 3b 1c 2f 1e 3b
       0.002539979 0.004401325 0.003173326 0.0024136966
0003b0 7c 7d 59 3a 7f 19 68 3b 82 6c c2 3b 61 2b 71 3c
       0.00082965917 0.0035415587 0.0059333453 0.014719815
0003c0 40 7c bb 3b 3c 31 3d 38 9a 46 63 39 e8 41 11 3a
       0.005721599 4.5106965e-05 0.00021674708 0.0005541132
0003d0 c5 ec c7 3b e8 ef 2a 36 b4 05 9c 3b fd 64 45 3a
       0.006101223 2.5471618e-06 0.004761422 0.0007530002
0003e0 d0 12 89 3b bc 2b 1e 37 32 ff 8a 37 20 49 3f 38
       0.004183151 9.427717e-06 1.6569717e-05 4.560605e-05
0003f0 74 05 25 39 f8 f0 1a 3a 5e 58 ed 3b 99 33 0a 3a
       0.00015737658 0.0005910541 0.0072432 0.0005271971

net.bias_hh_l0 f4 [512]
000000 ef 2d 44 3a f4 bb bc 3a af fc 6e 38 1b 15 85 3a
       0.0007483651 0.0014399276 5.697895e-05 0.0010153385
000010 7c cc a9 3b 09 e2 ce 36 e1 71 22 3b 20 86 a0 3b
       0.005181847 6.1655924e-06 0.0024787115 0.0048988014
000020 5c b8 39 3b 20 a9 a4 3a 27 0e 4c 34 dc be d9 3a
       0.0028338647 0.001256261 1.9004129e-07 0.0016612667
000030 f0 9d da 39 6f be fa 35 d4 73 00 3b 7d e9 65 3b
       0.00041697873 1.8681875e-06 0.001960029 0.0035081797
000040 45 3d ad 39 14 59 a1 3b ec 57 76 3a 06 af d5 3a
       0.0003304278 0.004923949 0.00093972567 0.0016302771
000050 20 b1 12 3b 3c 3b 35 3b 16 ba 4f 3a 88 25 6d 3a
       0.0022383407 0.0027653715 0.00079241523 0.0009046425
000060 b2 fc 95 39 ce 22 ca 3b 20 ff 9c 3b 3d fd d1 39
       0.00028607767 0.0061687 0.0047911555 0.00040052264
000070 6e 4d 48 3b 92 6d 75 3b 0f 84 53 3b 7c 44 00 3a
       0.003056373 0.0037449342 0.0032274758 0.00048930175
000080 d1 41 f8 39 7e 9f f1 3a 8c 45 c9 37 e2 59 d7 3a
       0.00047351283 0.0018434373 2.3993452e-05 0.0016429985
000090 ca db cf 3b 4c 3c 2e 3b fe 3b 52 3a 44 cf b0 38
       0.0063433396 0.0026586233 0.0008019804 8.43094e-05
0000a0 80 5b ae 3a 1c db 7a 3b 21 17 7d 3b 41 74 a6 3a
       0.0013302416 0.0038277572 0.0038618522 0.0012699441
0000b0 b9 53 3e 35 27 d9 2c 37 20 69 f6 38 d3 fe 04 38
       7.090235e-07 1.0302559e-05 0.00011749775 3.1708576e-05
0000c0 59 d4 a2 3a 32 b2 8c 3b b8 d7 5f 3b c8 2c a4 2f
       0.0012422904 0.0042937035 0.0034155678 2.9863245e-10
0000d0 3d 57 4d 3b 73 9f 04 3b b2 ce 07 3a 0d 7e 3e 3b
       0.0031332516 0.002023664 0.00051806413 0.0029066831
0000e0 b1 2c c8 39 39 ec 01 3c 9c 7b 01 3b 54 b7 4c 3b
       0.0003818027 0.007929855 0.0019757515 0.0031237202
0000f0 b5 0c c8 37 03 96 1e 39 fd ac 8b 3a 6d 6a 2a 3c
       2.3847775e-05 0.00015123938 0.0010656413 0.01040135
000100 64 a3 61 39 75 c2 63 3b 98 2a 60 39 ec 3a f0 38
       0.0002151854 0.0034753357 0.00021378172 0.00011455067
000110 2a 51 00 3b ee 38 18 34 d0 6a 7b 3b 8c 65 bb 3a
       0.0019579628 1.4176814e-07 0.0038363226 0.0014297231
000120 59 e3 18 3a c0 23 4e 39 f8 72 c0 35 ac 02 43 3b
       0.0005832217 0.00019659009 1.4338575e-06 0.0029756231
000130 b9 e5 40 3a 67 61 b1 37 ba d1 1d 39 8b 13 04 31
       0.000735845 2.11454e-05 0.00015050816 1.9219637e-09
000140 c2 c6 d4 3b 1d c1 99 3b c6 8f 82 39 da 24 48 36
       0.0064934203 0.0046922104 0.00024902652 2.9823773e-06
000150 22 73 75 3b 3d c7 d4 38 5d 97 a3 39 f7 32 a7 3a
       0.0037452658 0.00010146059 0.00031202557 0.0012756278
000160 a6 d1 ce 39 99 ec cd 39 33 23 34 3b 1b 5f 84 3a
       0.00039447582 0.00039276926 0.00274868 0.0010099144
000170 68 2c ab 3a fc ae 6a 3b ec c8 30 36 dc 3e 10 39
       0.0013059499 0.0035809865 2.6342996e-06 0.00013756327
000180 13 01 93 3a d7 cd f9 3a e5 a4 fb 39 58 c7 cb 3b
       0.001121553 0.0019058537 0.00047997307 0.006218832
000190 fa 37 8c 31 9d 0f 0b 3a 1f 40 0e 3b 28 ba ad 3b
       4.0809e-09 0.0005304756 0.00217057 0.0053017326
0001a0 5b 49 35 3b 78 df 9d 3b 9a 11 5c 3b aa 0a 2f 3b
       0.0027662131 0.0048178993 0.0033579827 0.0026709237
0001b0 e6 cf 70 3a 6d 3d 86 3b 9c 62 d3 3b 8e d7 66 3c
       0.0009186253 0.004096678 0.006450964 0.014089478
0001c0 61 5e cb 3b dd e8 53 38 fd 81 7d 39 15 07 21 3a
       0.006206319 5.052319e-05 0.00024176385 0.0006142718
0001d0 7c 07 ba 3b 48 d2 3c 36 d8 31 ab 3b 93 03 5b 3a
       0.0056771617 2.8136583e-06 0.0052244477 0.00083547196
0001e0 6b 2a 9b 3b 29 a7 2f 37 a3 2f 9b 37 00 73 55 38
       0.004735281 1.0469733e-05 1.8499622e-05 5.089026e-05
0001f0 d5 5c 37 39 c2 bd 2b 3a 7a 7d eb 3b 91 2d 19 3a
       0.00017486823 0.00065514084 0.007186589 0.0005843277
000200 b5 96 31 3a ba 80 aa 3a fb d2 56 38 0c 28 70 3a
       0.0006774471 0.0013008334 5.1218067e-05 0.0009161241
000210 70 62 9d 3b ac 2c c9 36 27 df 15 3b 24 7f 96 3b
       0.0048029944 5.9954673e-06 0.0022868605 0.004592793
000220 c6 e4 25 3b d1 04 95 3a a1 dd 34 34 a1 c6 c3 3a
       0.0025313362 0.0011369233 1.6844434e-07 0.0014936515
000230 d2 57 c5 39 57 43 e1 35 39 89 e6 3a cc 9e 4d 3b
       0.000376402 1.6783405e-06 0.0017588503 0.0031375168
000240 08 e0 9b 39 28 37 8d 3b 92 0b 5e 3a e9 93 c1 3a
       0.0002973082 0.0043095537 0.0008470352 0.0014768812
000250 35 f9 02 3b 5d 68 24 3b ea de 39 3a cf b2 56 3a
       0.0019984965 0.002508662 0.0007090407 0.00081900967
000260 e4 a7 86 39 9a 43 fd 3b 93 9b 95 3b 66 1e be 39
       0.0002568356 0.007729006 0.004565665 0.00036262273
000270 10 04 36 3b 3f d8 60 3b 75 2a 3a 3b 55 75 e5 39
       0.0027773418 0.003430858 0.0028406654 0.00043765703
000280 36 92 e0 39 4b 48 d9 3a 4d 92 b4 37 4e 14 c3 3a
       0.00042833545 0.0016577331 2.1525799e-05 0.0014883371
000290 1a c1 c1 3b a9 1c 1e 3b d3 09 3d 3a c7 7c 9f 38
       0.005912912 0.002412597 0.0007211242 7.6049524e-05
0002a0 eb 03 a3 3a c3 af 73 3b ed 75 65 3b 11 41 96 3a
       0.0012437081 0.003718362 0.0035012916 0.0011463483
0002b0 04 ea 29 35 4c b8 1b 37 e5 8f de 38 50 67 ed 37
       6.3297944e-07 9.28163e-06 0.00010612587 2.830071e-05
0002c0 3b da 92 3a 6f 0c 81 3b 7a 9c 4b 3b 8c 3c 93 2f
       0.0011203954 0.00393825 0.003106861 2.6782165e-10
0002d0 07 ee 3a 3b 3d 29 f0 3a 6b 49 f4 39 3a a7 2b 3b
       0.0028523223 0.0018322837 0.00046594007 0.0026192204
0002e0 a0 a0 b3 39 cd 6d ed 3b b5 38 eb 3a ca 58 34 3b
       0.00034261215 0.0072457553 0.0017945977 0.0027518743
0002f0 95 86 b3 37 76 ac 0e 39 82 58 7c 3a 23 d4 23 3c
       2.1401132e-05 0.00013606422 0.0009626226 0.009999308
000300 98 f5 4b 39 d8 75 5e 3b ca 60 49 39 49 62 d8 38
       0.0001945108 0.0033944752 0.0001920491 0.0001031799
000310 4a a3 e9 3a c0 b0 07 34 18 a9 69 3b 23 b7 a8 3a
       0.0017825153 1.2637156e-07 0.0035653766 0.0012871962
000320 1e 29 0a 3a 68 36 39 39 ca 91 ab 35 64 99 3e 3b
       0.0005270409 0.00017663243 1.2782923e-06 0.0029083127
000330 cf eb 3c 3a b9 95 9e 37 80 97 0d 39 43 71 eb 30
       0.0007206769 1.8904788e-05 0.00013503246 1.7130691e-09
000340 b9 e0 05 3c 93 fd 89 3b a7 fd 6a 39 70 a9 32 36
       0.008171254 0.0042111366 0.00022410472 2.6622693e-06
000350 43 fe 5e 3b d0 e2 be 38 11 e3 92 39 be c0 96 3a
       0.0034026064 9.102153e-05 0.00028016468 0.0011501533
000360 42 31 ba 39 c6 9e b9 39 09 55 23 3b 85 e0 6d 3a
       0.00035513385 0.00035404245 0.002492251 0.00090742885
000370 c2 7e 9b 3a 87 a4 75 3b 3d 0e 1e 36 de 7b 01 39
       0.0011863338 0.00374821 2.3552122e-06 0.00012348543
000380 2a c7 84 3a cb 6b e2 3a 80 e9 e2 39 f4 01 cf 3b
       0.0010130156 0.0017274556 0.0004328005 0.0063173715
000390 ba c7 74 31 75 c5 fa 39 e8 16 00 3b 82 6f 95 3b
       3.5620205e-09 0.00047830833 0.0019544903 0.004560412
0003a0 51 3c 29 3b 8f 31 91 3b d5 c4 4b 3b c7 55 1e 3b
       0.0025823305 0.0044309567 0.0031092663 0.0024160014
0003b0 75 82 59 3a 92 c6 7a 3b c5 61 c4 3b 4f a0 5a 3c
       0.00082973327 0.003826533 0.0059931003 0.013343885
0003c0 9c 43 b6 3b 75 35 3d 38 1e 8c 62 39 03 41 11 3a
       0.005562259 4.5110897e-05 0.00021605237 0.00055409985
0003d0 52 ec c0 3b 95 f9 2a 36 aa dc a3 3b bf 65 45 3a
       0.0058875466 2.547725e-06 0.0050006704 0.0007530115
0003e0 0b e3 8f 3b ac 48 1d 37 ff b9 8a 37 87 d1 3f 38
       0.0043910793 9.3748495e-06 1.6537493e-05 4.5733086e-05
0003f0 d5 0a 25 39 8c c2 1a 3a 79 e0 04 3c 71 2e 0a 3a
       0.00015739661 0.00059036235 0.008110159 0.00052712025
