results/XJTU-handcraft_features/GRU/batch1-testbattery2/experiment1/GRU_handcraft_features_model.pkl (torch, 778667 bytes, 13 tensors)

weight f4 [512, 67]
00000000: 2005 c51d 7374 0a1e a198 531e 5ba1 b69d
00000010: c623 4a9e a625 971c 8b91 ca9b 11c8 051e
00000020: fabd 3c1e b5ef 559d df99 f09d c59f 9e1d
00000030: 6f87 5e1c 2fc1 9b1e 5720 039e 5b6e c11d
00000040: a9ce 929d 5be0 b89e 8452 a41d 1649 569d
00000050: 48ae c89c ce47 b79c 7a34 979d 209d 049e
00000060: 77cd 821d b321 079e 1ea1 449e 5753 729e
00000070: 2cb3 af9d b313 651d 224b 729e 92b9 9a9e
00000080: 6693 881d 442c 3e9d b1c5 1b1e 7a19 699d
00000090: a294 c39c dffe bd1e a61a ac9d 4d89 891b
000000a0: 406a 321e e8cd 129c faac 979c e50a 0e1d
000000b0: 2046 a39b 0b13 f29c 0e0f 621c 6630 641d
000000c0: 4d0b fe1c 17d0 9a9c 865b 659c 0a42 011d
000000d0: 72f2 b51d 56d2 4f1e 07c8 0c9b 7551 d19d
000000e0: 91af 111e 5e03 229e de97 961d 3d16 b81d
000000f0: b0c1 559e 564b 641d ac13 601d f048 2e9d
00000100: 8ea1 959d 7caf 579e bede 109c 8c7b 199e
00000110: c843 ca1d d8fb 369e 029f d09d 4aa8 7b1c
00000120: 7f73 d01d 7c20 bc9d c89b 0e9e 265c 871d
00000130: 3623 0d1d 850b 3d1d 0a6a a71d 8be5 441d
00000140: 22d3 149e 9618 ae1d e46d 839d a7b1 989e
00000150: 8fd8 a01d f190 2f9c 99e0 971e e2a1 0f1e
00000160: a423 fe1c 713d 171e 4b00 421d ae04 9e1d
00000170: 1b0d d29a 39c2 0e9e 7103 df9d 16e4 7a9d
00000180: 77c4 9b1d fe24 6c1e 5153 661d 42a3 4c9e
00000190: 25a4 b19d 803b 059d 04a0 831d f78e be9d
000001a0: 85c1 129e b9fb ac1d f3ee 609c 1afd bb1b
000001b0: d0e5 609e 15f1 a99c 3580 8d9e 9b9a 141c
000001c0: a350 a99d 433c b31c bafb 961b c0dd eb1c
000001d0: 96fa 7f1b b822 839c 0f5b 1a1e 1f0a 949d
000001e0: f2d7 e11d 772c 7b9d e9a9 c39d caf8 919a
000001f0: a9a9 ac9c 18b5 301d 35b9 ac1e ee07 789d
00000200: 468d 8d9e f796 ac9e 379d c39d 9370 d99d
00000210: 6d50 8c1e 46c7 861d d7f8 0f1e 98e5 249e
00000220: 9fdc 171e 7484 0a9e a3ff 039e 4af4 1f9f
00000230: 8649 cf1d 2317 e41d af68 d79c d503 149f
00000240: 1b83 311d 0cb5 411e ef5c 889d fffc 0a9e
00000250: 8a78 4f9c 0a04 b99d d67a f01c fb36 771d
00000260: 18a1 8b9e 1449 159e 2855 7c1e 0a63 119c
00000270: b786 049e f16f 8a9e 6108 231e b2d8 7b9d
00000280: 9fad 279e ff09 c59e 69d9 009f bf27 449e
00000290: 2947 c11d 7429 bb1d f49c 559d b0bd 5b9e
000002a0: 43d4 0d1e f98e ff9d ba9d c09d 2a9d aa9e
000002b0: 9bda f81d f290 951d ce26 d71b 9fd0 e59b
000002c0: 0a9e d11d daca 0a1d 1753 1f9b 1aed d59c
000002d0: 8b39 be1c 4f33 229b 1237 7a1d f10b 9e9d
000002e0: a557 2b1e 0314 929e b29f f49e 729a 141e
000002f0: 6774 b59e 7d75 859e c9d2 b79e 1e0f 439f
00000300: 4265 f01d 37e4 501e 9ecc 9a9d 393b 809e
00000310: f9d1 a01e 0cbd da9d 613f a29e cb6f 4a9e
00000320: c394 451d 7db7 731e 22b8 061f de5d 8e1e
00000330: 0193 689d 99cd 609d abb4 8c9c f57a 851d
00000340: 07a9 0b1e 433f 079e f494 1a1e e8c8 931d
00000350: e365 1a1e 0376 141d 2b0f b29d c3ea 881e
00000360: 45ce 079e d6d3 199f e17e f99b fc4f 4f1d
00000370: 17cf 921e 520f 589e 8d42 0d1c ff46 499e
00000380: 8a5c fd1d 5df2 881e 0634 0c9d 27b1 ea9d
00000390: 424a 2e9e 8c3b 3f9e 97ef b41d 4ae4 011e
000003a0: 337b 8b1d a1bc 849d 77a3 059e f588 149e
000003b0: 5e86 129e dfe5 e79e 215f 1b1e 4ff7 c91e
000003c0: ba30 c21e be30 c49c 6c6f 7d1c ee8f c59c
000003d0: 2b85 ac9e 5479 399d a47d 871e 0a7a da9c
000003e0: c9fb c01d 25c2 469e 675e 179b 6d09 111f
000003f0: eb4c c51e c439 4f1e c224 031f ea32 819d
5.2150765e-21 7.32974e-21 1.120181e-20 -4.8341837e-21 -1.0701189e-20 1.0002074e-21 -3.3512152e-22 7.082334e-21
9.991923e-21 -2.831424e-21 -6.368657e-21 4.198745e-21 7.362868e-22 1.6491162e-20 -6.94177e-21 5.120078e-21
-3.885956e-21 -1.9574549e-20 4.3495758e-21 -2.8360449e-21 -1.327994e-21 -1.2128485e-21 -4.0023627e-21 -7.0205145e-21
3.462316e-21 -7.153809e-21 -1.0409472e-20 -1.2828608e-20 -4.6507374e-21 3.0318082e-21 -1.28269104e-20 -1.6382134e-20
3.6151307e-21 -2.5169175e-21 8.246513e-21 -3.0850464e-21 -1.2942438e-21 2.0116566e-20 -4.5555575e-21 2.2753477e-22
9.4452135e-21 -4.8573475e-22 -1.0037055e-21 1.8799176e-21 -2.7011405e-22 -1.6019139e-21 7.4796585e-22 3.020057e-21
1.6811231e-21 -1.0244655e-21 -7.5888035e-22 1.710715e-21 4.8160984e-21 1.1001985e-20 -1.1645161e-22 -5.5406064e-21
7.712542e-21 -8.576905e-21 3.9861696e-21 4.872739e-21 -1.131618e-20 3.0214497e-21 2.9656323e-21 -2.3066416e-21
-3.9607015e-21 -1.14182945e-20 -4.793349e-22 -8.1253015e-21 5.353904e-21 -9.68708e-21 -5.522155e-21 8.326644e-22
5.517656e-21 -4.9796774e-21 -7.549632e-21 3.582948e-21 1.8679398e-21 2.5019897e-21 4.4314174e-21 2.6059055e-21
-7.878716e-21 4.6082838e-21 -3.4789036e-21 -1.6167101e-20 4.2575564e-21 -5.8089975e-22 1.6080638e-20 7.6038335e-21
1.6817523e-21 8.006579e-21 2.5675838e-21 4.182709e-21 -8.687514e-23 -7.557582e-21 -5.9031167e-21 -3.3205142e-21
4.12313e-21 1.2501386e-20 3.048332e-21 -1.0833431e-20 -4.702123e-21 -1.7633164e-21 3.4840864e-21 -5.0440403e-21
-7.7691945e-21 4.5788296e-21 -7.442422e-22 3.1100118e-22 -1.1905985e-20 -1.12458e-21 -1.4981981e-20 4.9168915e-22
-4.4817304e-21 1.1860804e-21 2.4978093e-22 1.5608317e-21 2.1174074e-22 -8.677827e-22 8.1715226e-21 -3.918574e-21
5.9780286e-21 -3.3242561e-21 -5.1791753e-21 -6.0372535e-23 -1.1425861e-21 2.338703e-21 1.8287808e-20 -3.2826626e-21
-1.4987385e-20 -1.8273646e-20 -5.1778627e-21 -5.755582e-21 1.485634e-20 3.567555e-21 7.621816e-21 -8.7295666e-21
8.039497e-21 -7.33305e-21 -6.987947e-21 -3.387163e-20 5.4868465e-21 6.037502e-21 -1.4254567e-21 -3.134339e-20
2.3493535e-21 1.02547745e-20 -3.609499e-21 -7.3579775e-21 -6.864635e-22 -4.897327e-21 1.591362e-21 3.2718602e-21
-1.4783824e-20 -7.9031065e-21 1.3358379e-20 -4.810448e-22 -7.01588e-21 -1.4657616e-20 8.630881e-21 -3.3331602e-21
-8.87681e-21 -2.086232e-20 -2.7284892e-20 -1.0384373e-20 5.1160253e-21 4.954135e-21 -2.8271458e-21 -1.163299e-20
7.5083725e-21 -6.764577e-21 -5.0985062e-21 -1.8064452e-20 6.5871086e-21 3.958984e-21 3.5593843e-22 -3.801969e-22
5.5485248e-21 1.836902e-21 -1.317902e-22 -1.4156447e-21 1.258802e-21 -1.3416905e-22 3.3115695e-21 -4.18346e-21
9.070789e-21 -1.5466628e-20 -2.5900553e-20 7.866993e-21 -1.9212263e-20 -1.4130515e-20 -1.9463057e-20 -4.130536e-20
6.363217e-21 1.1058622e-20 -4.097503e-21 -1.3577021e-20 1.7027502e-20 -5.789959e-21 -1.717863e-20 -1.0716909e-20
2.614964e-21 1.2902257e-20 2.8527915e-20 1.5073657e-20 -3.0780944e-21 -2.9752445e-21 -9.311124e-22 3.533194e-21
7.393553e-21 -7.159923e-21 8.183495e-21 3.911831e-21 8.173762e-21 1.9648648e-21 -4.713189e-21 1.4496655e-20
-7.189496e-21 -3.2574237e-20 -4.1275588e-22 2.7437573e-21 1.5544002e-20 -1.1438113e-20 4.6739e-22 -1.0655533e-20
6.7064226e-21 1.44998e-20 -1.8555741e-21 -6.2122455e-21 -9.2268395e-21 -1.012377e-20 4.7893333e-21 6.876412e-21
3.692038e-21 -3.5135147e-21 -7.074765e-21 -7.863377e-21 -7.756962e-21 -2.4553149e-20 8.225304e-21 2.1383987e-20
2.0560702e-20 -1.2982792e-21 8.3854687e-22 -1.3073571e-21 -1.8266285e-20 -2.4547271e-21 1.4345645e-20 -1.4457576e-21
5.1082317e-21 -1.0522181e-20 -1.252093e-22 3.071274e-20 2.0889999e-20 1.09704344e-20 2.7770734e-20 -3.419866e-21

bias f4 [512]
00000000: 22c1 a11f 1c45 ec1f ee11 2620 4d4a 6220
00000010: 1d88 9520 fe34 c320 4fe3 0021 b446 2d21
00000020: 8c67 6a21 bc8a 9e21 ff4b d721 5efa 1322
00000030: f445 4f22 bf6a 9422 d2ce d822 2974 2023
00000040: c9ce 6e23 05c6 b123 27fb 0424 57cb 4924
00000050: dbef 9924 7b97 e624 7b42 2725 738e 6a25
00000060: b7b3 9e25 3b55 d125 7ddf 0926 afc4 3726
00000070: 4183 7526 2f31 a326 43cc d926 6203 1427
00000080: dc09 4f27 7556 9527 acb5 dc27 8f53 2428
00000090: 4aa1 7328 af5f b128 c8f6 fa28 d1fc 2729
000000a0: 0a6c 7f29 7b21 c629 eef3 022a 375d 582a
000000b0: 6d16 832a d891 d52a 06ce 3b2b 7cca 312b
000000c0: 92b7 bf2b 7140 082c dd17 f72b 1ca3 812c
000000d0: 36ed 682b 42e3 d2aa 95e0 2dab 5e17 1aab
000000e0: 3b85 81ab c4c0 492b 4191 f72c e6fb 6f2d
000000f0: bb93 aa2d 5515 ed2d c3e5 292e a4a9 752e
00000100: 08b1 832e b23e 282e ea15 8b2e c677 612f
00000110: 079e 9e2f 786f 842f 20de 1430 5545 3730
00000120: 07d1 4130 ee98 6430 41e9 9f30 4431 c530
00000130: 8706 c530 bf4d ab30 0a14 f630 e1a6 9531
00000140: d7ce 1332 d1be 5d32 790f 8732 afd1 8732
00000150: d439 8932 10a4 a932 2131 ed32 f748 2633
00000160: 8673 5433 360b 8233 7e71 ab33 637f f833
00000170: e61a 3834 45a8 8734 b3a6 c634 b23e 0f35
00000180: a970 4b35 32fa 8f35 1802 cb35 399d 0e36
00000190: f0c9 4936 91f6 8f36 5ed6 cc36 bab5 1037
000001a0: c504 4c37 19f6 8f37 2a6b cb37 39e6 0f38
000001b0: 97ed 4b38 4dab 9038 933c cd38 c065 1139
000001c0: 0ba5 4d39 b628 9139 3d83 cc39 5cb6 0f3a
000001d0: fc4f 493a e35c 8c3a 3c85 c23a bca9 053b
000001e0: b9a4 353b fd29 733b 6c79 9f3b 965b cb3b
000001f0: 8700 f93b a52f 0f3c c54f 133c 6f48 e73b
00000200: faa4 06a0 7867 2fa0 cf01 6aa0 93b4 9da0
00000210: a8fd d4a0 395f 10a1 acdf 45a1 34d9 89a1
00000220: 17ed c3a1 fdea 0da2 51a7 50a2 cd8b 9aa2
00000230: ba92 e5a2 968f 2aa3 4dc3 7fa3 b948 c2a3
00000240: 7569 13a4 26a5 5aa4 0815 9da4 3777 daa4
00000250: a300 13a5 65ae 41a5 14cd 7fa5 1cf7 aaa5
00000260: 5b86 e4a5 2cf1 17a6 bfa1 4aa6 af65 89a6
00000270: 2a9f bfa6 bd10 0aa7 75b2 4ca7 6f70 9aa7
00000280: 4966 eaa7 0ce8 30a8 800a 86a8 d523 cea8
00000290: 2934 1da9 4c96 62a9 72c8 91a9 7bf7 aaa9
000002a0: a26c 8da9 2c68 dea8 a99e 60a8 755c c8a9
000002b0: a4a8 a5aa f2ac f6a9 90a2 9f29 cd0e e529
000002c0: 1fa3 1b2a c2a2 6b2a 4351 c3aa ce35 50ac
000002d0: 1586 e3ac 7d50 53ad 59f1 93ad 3cec caad
000002e0: c79d 06ae 242e 28ae 5da2 a62c d802 b72c
000002f0: f0be 14ae 483b 49ae e09a 2bae 49ca b3ae
00000300: 06c5 12af c583 3daf b0ca 6aaf 71b7 95af
00000310: e682 bcaf aa21 ecaf 0dfb 1cb0 4c2a 57b0
00000320: e3b8 97b0 aa45 b8b0 49f2 a2b0 39fc 92b0
00000330: 34f4 f1b0 6c59 8bb1 0475 0db2 1c86 46b2
00000340: 8c0d 3eb2 d3b1 2eb2 a841 5db2 35bf 9cb2
00000350: d867 c5b2 7970 f2b2 371d 21b3 5ebe 64b3
00000360: c901 a8b3 1b91 f7b3 e2af 35b4 2f7a 84b4
00000370: c121 beb4 35ba 06b5 247e 3eb5 bc18 86b5
00000380: 8f91 bcb5 93d0 05b6 593e 3fb6 e316 88b6
00000390: 4a5f c0b6 50b8 07b7 65b6 3fb7 8893 87b7
000003a0: ad03 c0b7 8d3e 08b8 82b2 41b8 fcc7 89b8
000003b0: a9e9 c3b8 a225 0bb9 697c 45b9 bf0f 8cb9
000003c0: 6f8f c6b9 489e 0cba 56d9 46ba 9f3a 8cba
000003d0: b406 c5ba 58ad 09bb 1e0d 3fbb 174c 83bb
000003e0: d32b b2bb 33a3 edbb e0cc 1abc fd53 43bc
000003f0: 25e4 6bbc 42a4 85bc eacf 87bc 5b8a 54bc
6.8505664e-20 1.0006422e-19 1.406668e-19 1.9167529e-19 2.5331654e-19 3.3069352e-19 4.3668927e-19 5.8708255e-19
7.9419327e-19 1.0743219e-18 1.4589083e-18 2.0054758e-18 2.8090764e-18 4.0228502e-18 5.8765897e-18 8.698215e-18
1.2945794e-17 1.9274243e-17 2.8835672e-17 4.3757163e-17 6.6759504e-17 1.0000322e-16 1.4507465e-16 2.0344528e-16
2.753041e-16 3.6313475e-16 4.7834306e-16 6.3757435e-16 8.517933e-16 1.1323728e-15 1.5112765e-15 2.054096e-15
2.8732366e-15 4.1449545e-15 6.1259235e-15 9.121948e-15 1.3524184e-14 1.9692444e-14 2.78626e-14 3.7300732e-14
5.6715083e-14 8.798774e-14 1.163095e-13 1.9216994e-13 2.3285836e-13 3.79376e-13 6.672166e-13 6.3164036e-13
1.3622317e-12 1.9362535e-12 1.7557029e-12 3.6845093e-12 8.2752154e-13 -3.7461185e-13 -6.1773617e-13 -5.474422e-13
-9.20298e-13 7.167706e-13 7.0362887e-12 1.364151e-11 1.9392368e-11 2.6953254e-11 3.863022e-11 5.585722e-11
5.9886374e-11 3.8254462e-11 6.324881e-11 2.0506183e-10 2.8852318e-10 2.4089863e-10 5.4157745e-10 6.667354e-10
7.0510037e-10 8.3163243e-10 1.1635067e-09 1.4347639e-09 1.4335492e-09 1.2463984e-09 1.7904551e-09 4.3554427e-09
8.603556e-09 1.290728e-08 1.5723105e-08 1.5811422e-08 1.5975196e-08 1.9748796e-08 2.7612773e-08 3.8716248e-08
4.9465164e-08 6.055636e-08 7.983452e-08 1.15715714e-07 1.7146121e-07 2.5268142e-07 3.7001664e-07 5.3362885e-07
7.5787335e-07 1.0727147e-06 1.5125288e-06 2.1251165e-06 3.0068877e-06 4.290436e-06 6.1046294e-06 8.62538e-06
1.2160458e-05 1.7161527e-05 2.4249388e-05 3.430827e-05 4.8620244e-05 6.898362e-05 9.7864446e-05 0.00013866182
0.00019611807 0.00027686887 0.00039007692 0.0005482191 0.000767946 0.0010708835 0.0014840732 0.002039536
0.002771659 0.0037103884 0.0048667695 0.0062059863 0.00759894 0.008739387 0.0089911865 0.0070581953
-1.1404828e-19 -1.4857312e-19 -1.982117e-19 -2.6716329e-19 -3.6082053e-19 -4.8915124e-19 -6.7042224e-19 -9.340974e-19
-1.3276471e-18 -1.9233465e-18 -2.8277833e-18 -4.1889803e-18 -6.2225927e-18 -9.246124e-18 -1.3864934e-17 -2.1064321e-17
-3.196487e-17 -4.74111e-17 -6.8123525e-17 -9.474439e-17 -1.2750433e-16 -1.6799169e-16 -2.2187207e-16 -2.9657747e-16
-3.9642738e-16 -5.27155e-16 -7.0302035e-16 -9.533846e-16 -1.3296429e-15 -1.916042e-15 -2.8407429e-15 -4.2865487e-15
-6.5058945e-15 -9.82028e-15 -1.4881542e-14 -2.2886134e-14 -3.4906245e-14 -5.0312442e-14 -6.474065e-14 -7.5924476e-14
-6.2805026e-14 -2.4692128e-14 -1.2468902e-14 -8.897823e-14 -2.9426906e-13 -1.0954596e-13 7.0892185e-14 1.01722104e-13
1.382336e-13 2.0928661e-13 -3.4695345e-13 -2.9588445e-12 -6.466614e-12 -1.2011833e-11 -1.6819145e-11 -2.306965e-11
-3.0608207e-11 -3.823976e-11 4.7360297e-12 5.2014885e-12 -3.382089e-11 -4.575476e-11 -3.9018455e-11 -8.1759106e-11
-1.334862e-10 -1.7236264e-10 -2.1354185e-10 -2.7233285e-10 -3.429001e-10 -4.295207e-10 -5.7109234e-10 -7.827665e-10
-1.1039244e-09 -1.3407562e-09 -1.1855913e-09 -1.0694584e-09 -1.7604465e-09 -4.0555985e-09 -8.2338865e-09 -1.155561e-08
-1.1062536e-08 -1.01685655e-08 -1.2878822e-08 -1.8247741e-08 -2.2981041e-08 -2.8223655e-08 -3.7512304e-08 -5.3258525e-08
-7.823434e-08 -1.1528228e-07 -1.6920924e-07 -2.4675816e-07 -3.5414817e-07 -5.0189857e-07 -7.0964074e-07 -9.990977e-07
-1.4049455e-06 -1.993995e-06 -2.849751e-06 -4.05578e-06 -5.733139e-06 -8.089541e-06 -1.1426954e-05 -1.6161954e-05
-2.2889895e-05 -3.248318e-05 -4.6181034e-05 -6.569919e-05 -9.341847e-05 -0.00013270092 -0.0001883373 -0.00026714613
-0.0003787237 -0.0005364162 -0.0007585486 -0.0010698623 -0.0015031905 -0.0021007862 -0.0029152106 -0.0040068734
-0.005437353 -0.007252121 -0.00944826 -0.01192188 -0.014397656 -0.016313676 -0.016578633 -0.01297244

net.weight_ih_l0 f4 [384, 4]
00000000: 7e2d f937 d36f 6bb8 8b1a 7d38 b016 0338
00000010: 9e01 a639 96cc 1dba 2d68 2d3a f26b ad39
00000020: 1831 a438 fa3d 19b9 c9bf 2739 f811 a738
00000030: c071 0b39 c698 76b9 5054 8839 844c 0d39
00000040: aead 9839 b796 10ba 0590 1d3a a34e 9c39
00000050: 3aa7 0b3a 74d5 85ba 8b58 923a b85e 113a
00000060: 28bb 2838 992f a1b8 a563 ae38 1499 3238
00000070: b2d2 7b39 3cb5 ebb9 56cb 013a e8a6 8139
00000080: e9f2 9539 c955 0dba e493 1a3a 1391 9b39
00000090: 193e 4b39 81c3 c2b9 1115 d539 a30f 5339
000000a0: 5703 3936 89aa b1b6 5ad4 ba36 805d 3a36
000000b0: d556 2a39 53a3 a1b9 62b7 b039 0488 3039
000000c0: 5fb0 5039 bd37 c5b9 284b d839 6747 5839
000000d0: 3744 8439 4ece f9b9 ecfe 063a 1bfd 8539
000000e0: 7b8d 0039 0947 75b9 7d0d 8639 392a 0539
000000f0: f177 2d38 0882 a5b8 7b55 b538 ffc2 3838
00000100: fa32 2b39 d495 a4b9 cad9 b339 3926 3239
00000110: 770f 9e39 9343 16ba a21c 243a 16df a339
00000120: 1500 3539 cb20 abb9 b606 bb39 1145 4039
00000130: e577 4539 b5b7 bbb9 0d1e cc39 e31d 4a39
00000140: d6a8 8a39 4e66 03ba 4ab9 0f3a 6304 9039
00000150: f1e8 3d39 de70 b5b9 1d17 c739 4c72 4639
00000160: 5585 f838 eb84 6bb9 465d 8139 6b4d 0239
00000170: 42c9 5c39 8d9a d0b9 cee8 e339 5c51 6239
00000180: 9066 1d38 385e 96b8 0e6c a438 4ab8 2338
00000190: aac3 b238 5134 28b9 78a9 3739 6208 ba38
000001a0: 8a2f 2138 8709 96b8 ba46 a638 1979 2638
000001b0: 7c2a 0931 525e 81b1 c417 8d31 3bcf 0e31
000001c0: aede ef37 ec42 6db8 a2b4 7e38 bfeb 0738
000001d0: ff35 b436 bf8a 2fb7 61da 3c37 f657 be36
000001e0: 205c 8e38 2915 d9b8 cec5 eb38 ac96 6c38
000001f0: 5b4c e836 6b2e 4bb7 3c9c 5637 e4cd da36
00000200: 36dd 9b37 598e 15b8 cc5f 2338 6229 a437
00000210: 938a 1f39 7810 96b9 77fb a339 9874 2239
00000220: ded0 9d38 318f 04b9 ec60 0d39 0bc0 a038
00000230: ee3d 082f c9f3 7baf 8030 892f 8c18 122f
00000240: 1ec2 f638 77f0 68b9 6b24 7e39 523a 0039
00000250: 97b5 e337 eee1 5ab8 b159 6e38 d3ec f037
00000260: a737 9d38 4bf2 14b9 278a 2339 c681 a338
00000270: 40ab d338 2b8e 49b9 742c 5b39 5898 dd38
00000280: 56b2 6d39 8e33 e2b9 0696 f739 1e84 7639
00000290: 0a92 6a39 b7f4 dfb9 3945 f539 174a 7439
000002a0: d515 ce39 fe3e 42ba e344 543a 44f3 d539
000002b0: d93f 5c38 d9e2 cdb8 5286 e138 176a 6438
000002c0: 64db 7139 66c9 e5b9 45fd fa39 e718 7b39
000002d0: 08ab c636 152b 38b7 967f 4737 33e3 ce36
000002e0: 1ab8 bd37 2538 1bb8 bc20 2a38 d082 9737
000002f0: f30d 7339 53c9 e5b9 f986 fa39 42a8 7c39
00000300: bc89 a739 5763 1fba 42c9 2d3a a4ca ad39
00000310: b4d4 4f39 d8bc c3b9 67e9 d439 c2fc 5739
00000320: 6930 9339 8a7b 0cba b196 193a cba1 9839
00000330: 06f3 0339 bf47 7bb9 ec5c 8939 47ff 0839
00000340: f10c a139 df67 1bba b1b1 293a 609c aa39
00000350: dffc 3539 efc6 adb9 aefe bd39 da5f 3d39
00000360: 8593 5739 d9f5 ccb9 4897 e039 ed1c 6039
00000370: c051 6238 b1f8 d0b8 43ea e138 0bac 7738
00000380: 0001 f838 8046 6ab9 4d7b 7f39 c63c fe38
00000390: 3454 d838 4018 4db9 b6c8 5f39 1d71 dd38
000003a0: bdc0 fe35 b832 7fb6 c2e2 8336 9072 1436
000003b0: e8a0 2637 889f 9cb7 2d31 ab37 d905 2d37
000003c0: b106 0737 48f8 7bb7 0ae0 8c37 8f88 1037
000003d0: 9778 ad39 0fe7 25ba f15d 353a 864c b439
000003e0: 3a8c 3539 21e7 adb9 0cfd bd39 b5ab 3c39
000003f0: 8bd8 6a38 349c dcb8 0497 f038 f117 6e38
2.9704297e-05 -5.613251e-05 6.034462e-05 3.1253963e-05 0.00031663192 -0.00060195604 0.00066149497 0.00033077557
7.829274e-05 -0.00014614305 0.00015997807 7.9665275e-05 0.00013298448 -0.000235173 0.0002600276 0.00013475312
0.000291211 -0.00055156223 0.0006010535 0.00029813228 0.0005327348 -0.0010210709 0.0011165304 0.0005545425
4.0228624e-05 -7.685944e-05 8.315527e-05 4.2581072e-05 0.00024015715 -0.00044957723 0.0004951259 0.00024729152
0.00028600477 -0.0005391506 0.0005896671 0.00029671993 0.00019382722 -0.00037148225 0.00040642222 0.00020128353
2.7569092e-06 -5.294864e-06 5.567953e-06 2.7770584e-06 0.00016244811 -0.0003083 0.00033705967 0.00016835338
0.00019902129 -0.00037616296 0.00041254726 0.00020625965 0.00025227826 -0.0004764669 0.00051496807 0.00025556315
0.00012259737 -0.00023391483 0.0002556852 0.00012699598 4.135812e-05 -7.892033e-05 8.6466745e-05 4.4050623e-05
0.00016326821 -0.00031392148 0.00034303806 0.00016989642 0.0003014763 -0.0005732115 0.000626037 0.00031255995
0.00017261536 -0.00032640094 0.0003567242 0.00018336276 0.00018832048 -0.00035804292 0.00038932302 0.00019275355
0.00026447204 -0.0005012498 0.00054826273 0.0002746909 0.00018111222 -0.00034607103 0.00037973459 0.0001892533
0.000118503965 -0.00022460862 0.00024674291 0.00012426607 0.0002105581 -0.00039788 0.00043470267 0.00021583348
3.7527236e-05 -7.170107e-05 7.840256e-05 3.903386e-05 8.524147e-05 -0.00016041218 0.00017515372 8.8707326e-05
3.8429665e-05 -7.154332e-05 7.928671e-05 3.9690265e-05 1.9960273e-09 -3.765117e-09 4.106342e-09 2.0781517e-09
2.8594714e-05 -5.656753e-05 6.0726547e-05 3.2406064e-05 5.370704e-06 -1.0463117e-05 1.12565185e-05 5.6726813e-06
6.788247e-05 -0.00010351308 0.00011242517 5.640711e-05 6.9230277e-06 -1.211055e-05 1.279177e-05 6.520875e-06
1.858045e-05 -3.565694e-05 3.8951446e-05 1.9569594e-05 0.00015215045 -0.000286225 0.0003127714 0.00015492958
7.525248e-05 -0.00012641844 0.00013482914 7.665165e-05 1.239113e-10 -2.2914927e-10 2.4954616e-10 1.3287343e-10
0.00011766351 -0.00022214824 0.00024236894 0.00012228757 2.7145068e-05 -5.2185664e-05 5.6827153e-05 2.872051e-05
7.4967094e-05 -0.00014204641 0.00015596357 7.796618e-05 0.00010093162 -0.00019221815 0.00020902028 0.000105664774
0.00022668517 -0.0004314449 0.00047223287 0.00023509606 0.00022370383 -0.000427162 0.00046781616 0.00023297254
0.00039307648 -0.0007409899 0.0008097423 0.00040807773 5.251155e-05 -9.8174154e-05 0.00010753855 5.445824e-05
0.0002306528 -0.00043828337 0.00047872416 0.00023946502 5.9207705e-06 -1.09772855e-05 1.189103e-05 6.165728e-06
2.2616285e-05 -3.700717e-05 4.0561645e-05 1.8061517e-05 0.00023179482 -0.00043828282 0.00047784278 0.00024095274
0.00031955342 -0.00060801714 0.0006629416 0.0003314811 0.00019820296 -0.00037333998 0.0004060969 0.00020598157
0.00028074093 -0.0005358985 0.00058589416 0.00029112244 0.00012583667 -0.00023963953 0.00026199908 0.00013065069
0.00030717955 -0.0005928259 0.00064733165 0.00032541435 0.00017355707 -0.00033145348 0.0003623864 0.00018060152
0.00020558953 -0.00039093083 0.00042837323 0.0002137308 5.3958734e-05 -9.964535e-05 0.00010772471 5.9049617e-05
0.00011825748 -0.00022342242 0.00024364628 0.00012122984 0.00010315367 -0.00019559357 0.00021341708 0.0001055917
1.8980569e-06 -3.8027483e-06 3.9305023e-06 2.2120403e-06 9.931835e-06 -1.8670937e-05 2.0407688e-05 1.0312965e-05
8.048185e-06 -1.5018573e-05 1.6793627e-05 8.614864e-06 0.00033086978 -0.0006328681 0.00069186004 0.0003438929
0.00017313744 -0.00033169336 0.00036237424 0.00017993043 5.599162e-05 -0.000105195126 0.00011472221 5.676592e-05

net.weight_hh_l0 f4 [384, 128]
00000000: 8c23 8837 3bf0 d6b7 e1d1 58b7 1346 a137
00000010: 552b d6b7 821a 0b38 d02c 3437 b17d b8b7
00000020: 44f2 da37 e9e8 8cb7 f1e6 5036 83ab a037
00000030: 789c af37 ba86 cfb7 9704 72b7 789e 5037
00000040: 04b2 a537 f9a2 e537 2259 bcb7 c627 c837
00000050: ee68 bf37 f979 b937 a1a7 8cb7 6d8d bab7
00000060: 3789 0637 a175 4fb7 b667 6137 29d0 2133
00000070: ce39 2437 0114 73b6 bd91 40b7 8ec0 8636
00000080: 947c 8fb6 65bc 90b7 f6c5 7037 59fa 9832
00000090: b257 6137 eef5 0f37 6345 8e37 4a41 8437
000000a0: 6f87 acb7 8375 b137 ac57 f537 4eac 08b7
000000b0: d5bd bb37 e2d9 b636 16a5 f8b6 1112 c9b7
000000c0: 7403 d637 05c2 ae37 0a79 c237 17a9 84b7
000000d0: ce0b d2b7 8709 95b7 041c b3b7 3ac2 48b7
000000e0: 0790 b837 2c3f 70b7 0849 10b6 ce7a 84b6
000000f0: aef8 98b6 5e3f df37 5a68 aab7 4cdf 3eb7
00000100: 327f e6b7 af4a 8337 e228 ac36 4780 ab37
00000110: 4d35 4137 4121 99b6 ba91 59b4 0c0d 1a35
00000120: 9660 cbb7 8879 bfb7 2899 58b7 002c 19b6
00000130: 704e 8137 da16 e337 aca7 0635 2b86 d236
00000140: 5001 dcb7 7694 10b7 7b3f 9636 5f73 5f37
00000150: cd43 13b7 bb64 5132 940c 3fb7 d13a de36
00000160: 4732 4337 8aee 7eb7 c7a9 04b7 9c2c b137
00000170: 97e2 8d37 4436 a7b7 f392 36b5 2df5 7937
00000180: 9af3 3336 12fa 6eb7 2b55 c837 e4fc bab7
00000190: 305b 25b6 070e a437 6ae5 b036 441b b737
000001a0: a4ec 0438 919b 5cb7 4e2f 9cb7 edb6 2a35
000001b0: be0d 3a33 cdb9 24b6 b79b cb37 d203 10b7
000001c0: de89 e6b6 6d80 d237 5b21 c837 660d 8737
000001d0: 9d35 efb7 f11d 9db7 7641 bb36 1136 b937
000001e0: 6128 0838 f5bf 2a37 be40 f6b7 80af 9637
000001f0: 7014 0937 068d c037 fc8a 14b7 8350 2337
00000200: 8742 1339 6d47 67b9 a849 e9b8 f512 2c39
00000210: 8f91 67b9 76ae 9739 a4bc c238 71f5 44b9
00000220: d757 6c39 d4b0 19b9 c7bd df37 20e1 2e39
00000230: bab3 3e39 ee3a 5fb9 e218 03b9 c240 e038
00000240: 8949 3339 c177 7839 6671 4ab9 610d 5739
00000250: 2b0f 4d39 c99b 4839 c3e2 17b9 cf2e 49b9
00000260: d83d 9338 d4db ddb8 cec3 f438 06b3 ad34
00000270: 2e12 ae38 141b 01b8 d981 cbb8 6ae4 1038
00000280: f510 1bb8 1244 1bb9 6a04 0039 1e28 2134
00000290: dcfe f238 ecee 9938 d129 1839 43b1 0d39
000002a0: ab9e 3bb9 e7ab 4239 29bf 8439 4ca4 92b8
000002b0: 6e72 4c39 4c6f 4638 cab4 83b8 0e6d 5ab9
000002c0: 1b0a 6739 19d9 3a39 a316 5639 c0e6 10b9
000002d0: 9314 61b9 1f3f 23b9 3ec3 41b9 bd47 d6b8
000002e0: 3c8d 4639 a952 01b9 6582 9ab7 eb7c 0eb8
000002f0: 1aee 22b8 b25a 7439 98a0 3bb9 2dbd cdb8
00000300: 7abe 79b9 f246 0d39 305d 3738 1c0a 3839
00000310: 0054 d038 acf3 25b8 a7c4 e8b5 d980 a536
00000320: ee32 5fb9 0c31 54b9 c39d e7b8 5fc4 9ab7
00000330: 119f 0a39 2c27 7539 9337 8e36 f012 6138
00000340: ea61 6bb9 6ccb 9bb8 936c 2338 aaa8 f038
00000350: 6f69 9cb8 0f27 1934 35c3 cfb8 57f5 6a38
00000360: 4838 d038 cbf0 08b9 7dfa 8cb8 0efb 3e39
00000370: 888a 1939 1d15 35b9 3f68 c1b6 3757 0839
00000380: c4f6 c037 30c9 00b9 030b 5939 7221 4db9
00000390: 23c9 b1b7 6359 3039 9948 3e38 2f80 4739
000003a0: 85a3 8e39 67f8 eab8 850a 28b9 3a48 b636
000003b0: 758a c434 893d adb7 3a28 5b39 b545 9db8
000003c0: 0765 74b8 86f5 6439 d172 5739 1cc2 1139
000003d0: 393d 81b9 70d3 29b9 88e5 4938 6b32 4839
000003e0: 2765 9539 14e3 b938 69f0 86b9 c010 2339
000003f0: 553a 9238 4d9f 4d39 b978 a1b8 7849 af38
1.6229016e-05 -2.5622654e-05 -1.29234695e-05 1.9225326e-05 -2.5530966e-05 3.316487e-05 1.073927e-05 -2.1993039e-05
2.6100439e-05 -1.6797758e-05 3.112884e-06 1.9153353e-05 2.0934487e-05 -2.473906e-05 -1.4425393e-05 1.24346625e-05
1.9752428e-05 2.7374817e-05 -2.2452852e-05 2.3860379e-05 2.2817836e-05 2.2110517e-05 -1.6767359e-05 -2.2238784e-05
8.01897e-06 -1.2365549e-05 1.3435192e-05 3.7675054e-08 9.78862e-06 -3.6221466e-06 -1.1478024e-05 4.0159275e-06
-4.276235e-06 -1.7253866e-05 1.4351206e-05 1.7808974e-08 1.3431463e-05 8.580724e-06 1.696003e-05 1.5766029e-05
-2.0567064e-05 2.1154765e-05 2.9247101e-05 -8.1463495e-06 2.2380535e-05 5.4493876e-06 -7.4101945e-06 -2.396948e-05
2.5512396e-05 2.0832764e-05 2.3182965e-05 -1.5814365e-05 -2.5039448e-05 -1.776662e-05 -2.1351509e-05 -1.1966151e-05
2.2001577e-05 -1.4319823e-05 -2.1500182e-06 -3.948203e-06 -4.558903e-06 2.661318e-05 -2.0314172e-05 -1.1376873e-05
-2.7477367e-05 1.5651194e-05 5.130759e-06 2.0444522e-05 1.15161065e-05 -4.5636266e-06 -2.0262715e-07 5.7388456e-07
-2.4244462e-05 -2.2825567e-05 -1.2910263e-05 -2.2824388e-06 1.5414524e-05 2.707115e-05 5.0162885e-07 6.274107e-06
-2.6226655e-05 -8.617635e-06 4.4777385e-06 1.3318698e-05 -8.777669e-06 1.2188305e-08 -1.1387416e-05 6.6229627e-06
1.1634612e-05 -1.5195119e-05 -7.9073425e-06 2.1120817e-05 1.6914024e-05 -1.993322e-05 -6.801412e-07 1.4898641e-05
2.6814873e-06 -1.42441295e-05 2.3881517e-05 -2.229069e-05 -2.4639994e-06 1.9556855e-05 5.271916e-06 2.1827997e-05
3.169164e-05 -1.31492425e-05 -1.8618677e-05 6.3596127e-07 4.3318998e-08 -2.4546055e-06 2.4271996e-05 -8.583958e-06
-6.870584e-06 2.5093754e-05 2.385739e-05 1.6099493e-05 -2.8515986e-05 -1.8729801e-05 5.580655e-06 2.2078895e-05
3.2462533e-05 1.0177483e-05 -2.9355633e-05 1.7963117e-05 8.170595e-06 2.2953853e-05 -8.853847e-06 9.734303e-06
0.00014043796 -0.00022056485 -0.00011124025 0.0001641026 -0.00022084102 0.00028930948 9.285778e-05 -0.0001878345
0.00022539437 -0.0001465709 2.6672044e-05 0.00016677799 0.00018186765 -0.0002128889 -0.00012502403 0.000106932144
0.00017098164 0.00023695735 -0.00019306465 0.00020508982 0.00019555974 0.00019131521 -0.00014484958 -0.00019186291
7.0210255e-05 -0.000105790474 0.00011671298 3.2354018e-07 8.300353e-05 -3.0781215e-05 -9.70398e-05 3.4545003e-05
-3.6970672e-05 -0.0001480731 0.00012208676 1.5008888e-07 0.000115869305 7.340111e-05 0.00014511427 0.00013512843
-0.00017892818 0.0001856532 0.00025319427 -6.992425e-05 0.00019497584 4.7310532e-05 -6.280241e-05 -0.00020830726
0.00022033641 0.00017819217 0.00020417063 -0.00013818871 -0.00021465337 -0.00015568406 -0.00018478648 -0.000102176775
0.00018935365 -0.00012333192 -1.841895e-05 -3.3971777e-05 -3.884556e-05 0.0002330344 -0.00017893536 -9.8103985e-05
-0.00023817449 0.00013473237 4.3717388e-05 0.00017551373 9.933859e-05 -3.9566003e-05 -1.734258e-06 4.932383e-06
-0.0002128591 -0.00020236167 -0.00011044324 -1.8449673e-05 0.00013219962 0.00023379613 4.2383995e-06 5.3661817e-05
-0.00022447822 -7.428866e-05 3.8963346e-05 0.00011475508 -7.458298e-05 1.4263445e-07 -9.906889e-05 5.6018438e-05
9.928696e-05 -0.00013059673 -6.722377e-05 0.00018213337 0.00014642824 -0.0001726937 -5.763984e-06 0.00013002461
2.3003093e-05 -0.0001228198 0.00020698835 -0.00019562783 -2.1193706e-05 0.00016817967 4.5367142e-05 0.00019025871
0.00027206182 -0.00011204258 -0.00016025647 5.432431e-06 3.6608586e-07 -2.0651862e-05 0.00020900453 -7.499327e-05
-5.8268222e-05 0.00021835239 0.0002054677 0.00013900589 -0.00024650412 -0.00016195863 4.8135902e-05 0.00019092268
0.0002849486 8.863784e-05 -0.0002573759 0.00015551131 6.972688e-05 0.00019609668 -7.6995646e-05 8.358335e-05

net.bias_ih_l0 f4 [384]
00000000: 8e07 3c39 b75a cd3a 18c7 c539 c439 203a
00000010: 2df3 bd3a e139 363b c641 5139 d0ef 963a
00000020: 19d6 b83a 457a 8b3a b573 5e37 2b2e 5d3a
00000030: 475e 833a 1c9a a03a 2783 233a d3bc 5739
00000040: 6b2e 5b3a b393 c73a 61f4 603a 8b4c 783a
00000050: 6f74 a93a 93bb 703a ab9f 1d3a ea72 883a
00000060: d7c0 5739 1e6c db39 8ce7 5039 f04a 3432
00000070: 7de3 1439 36bd d737 252f 8739 88a1 fb37
00000080: 73f5 cb38 1338 433a 5f46 a639 2d0d 1a30
00000090: caad 173a 55b8 0739 2569 c239 70e1 fe39
000000a0: 8d13 983a 7349 993a 4d96 fd3a c220 8539
000000b0: 7f3d 993a 86b3 ef37 0c48 b438 5aba 973a
000000c0: 3fad d43a 4bd6 7a3a ec1b c43a 5b87 313a
000000d0: c4cd c53a ced3 6f3a 701d 8c3a b41f 8339
000000e0: 66f8 1c3a 8780 073a 9670 1b37 f27c 4d38
000000f0: 7ca1 2138 d195 ec3a c8fe 703a 55d3 8a39
00000100: 3002 ca3a 2289 c039 ce8b 4838 8bf3 2b3a
00000110: cab0 e239 4084 4338 cac4 3e35 82e8 5b35
00000120: f2f1 d33a 1753 2a3b 2df0 8939 39b1 0537
00000130: 4215 9539 e7fc cd3a 3e39 ec34 2ef4 9538
00000140: d86f db3a 1d0c 1d39 9bb7 1139 0c59 ad39
00000150: 3153 1639 2f9f e934 1112 6b39 de4e 9c38
00000160: 245b 9139 92b2 f639 325f b538 45be 223a
00000170: aad3 233a da00 203a 6ec4 5f35 859b 2e3a
00000180: d188 5937 3371 b839 5d05 e53a ee7a ef3a
00000190: 0b2b 3938 4d8d 5a3a 61be 9838 7482 913a
000001a0: f39e 213b caa6 5639 fd79 073a df9d 4735
000001b0: 1d7a 6b31 1e45 3237 e6d9 a93a 152c 3239
000001c0: f8d3 4838 14d0 e03a 7ac3 a73a e286 0c3a
000001d0: db9f 023b 4380 313a 2721 9c38 ef08 973a
000001e0: 588c 5f3b c174 6a39 10e1 343b 5c4c 633a
000001f0: c158 2f39 6eb4 833a 3b92 6039 d573 6e39
00000200: 19e5 f8b8 3990 9cb9 e3da a2b8 20e0 2eb9
00000210: e9a4 9fb9 4a88 06ba dffe 66b8 3c1d 6cb9
00000220: 5397 a3b9 7503 1bb9 617c a8b6 91a3 3db9
00000230: 6104 57b9 f4a4 96b9 4f9c ddb8 fa7e 98b8
00000240: 118a 40b9 41f6 b2b9 01af 70b9 b0d9 84b9
00000250: d0a8 75b9 1fb7 6ab9 8bad 0fb9 3a2f 75b9
00000260: 1f87 0eb8 48bf 93b8 4c96 b0b8 05d5 99b0
00000270: 84f0 38b8 c749 ccb6 fa86 73b8 bed1 feb6
00000280: 8072 23b7 7d95 12b9 39f4 d0b8 949d 28af
00000290: 310b b7b8 575a 10b8 0081 05b9 48b5 04b9
000002a0: 0ae7 59b9 d40c 67b9 0453 c6b9 17b2 08b8
000002b0: 49df 7ab9 57ba 6cb7 7e30 ddb7 2232 8eb9
000002c0: 4a7f a0b9 7094 4cb9 3a4c 92b9 b101 05b9
000002d0: cf55 97b9 1f7e 2cb9 3570 61b9 b1e6 a1b8
000002e0: 928d 5eb9 0605 d0b8 6684 26b6 3bcf 0ab7
000002f0: e369 32b7 8bf8 b8b9 479d 5ab9 9426 82b8
00000300: a27b b4b9 d667 e9b8 e25a 50b7 c8b4 44b9
00000310: 58a9 88b8 03b7 2db7 00cd fbb2 f2d5 2fb4
00000320: bf54 9eb9 09a1 9ab9 e351 9db8 96a3 04b6
00000330: 100a e0b8 61af abb9 9430 f4b3 7c70 98b7
00000340: 31fa 9fb9 1761 12b8 1d10 43b7 1b30 acb8
00000350: 9f90 22b8 44c1 8ab1 7326 82b8 4cae a2b7
00000360: d0be 82b8 a5b0 e3b8 4b60 e8b7 0724 51b9
00000370: c65b 0db9 c607 43b9 38a7 61b4 b602 ebb8
00000380: 34d7 6ab6 1742 c4b8 50a1 8fb9 dfdf 8db9
00000390: e489 6ab6 94cb 33b9 0cfb 62b7 acc8 7bb9
000003a0: dc6d e1b9 cf29 a0b8 c313 26b9 b608 5cb4
000003b0: b1a4 67b0 d54c 32b6 945d 95b9 9b61 1cb8
000003c0: 1ed0 a9b7 5532 a1b9 3968 86b9 7e6b 01b9
000003d0: 64f6 beb9 9500 23b9 d04f 7ab7 0ac6 70b9
000003e0: a1f1 08ba 61f6 54b8 bbaf ebb9 6ec8 24b9
000003f0: 8c7c 04b8 4511 6fb9 2e28 25b8 2d97 37b8
0.00017931891 0.0015667294 0.00037723104 0.00061121234 0.0014492028 0.0027805495 0.00019956296 0.0011515561
0.0014101892 0.0010641298 1.3259171e-05 0.00084373605 0.0010022604 0.001225296 0.00062375 0.0002057434
0.0008361104 0.0015226513 0.0008581337 0.0009471855 0.0012928377 0.0009183224 0.0006012867 0.0010410224
0.00020575836 0.0004185149 0.00019922684 1.0494418e-08 0.00014199126 2.5718105e-05 0.00025784332 2.999675e-05
9.725513e-05 0.00074470154 0.00031714418 5.60436e-10 0.00057860895 0.00012943272 0.00037080902 0.0004861462
0.0011602506 0.0011694863 0.0019347161 0.00025392143 0.0011691301 2.8574617e-05 8.5964886e-05 0.0011575923
0.0016225948 0.00095686753 0.0014961935 0.00067721837 0.001509123 0.0009148688 0.0010689925 0.00025009888
0.0005987942 0.00051689934 9.264933e-06 4.8992173e-05 3.8535785e-05 0.001805002 0.0009193239 0.00026478866
0.0015412029 0.00036723266 4.781392e-05 0.0006559423 0.00043237797 4.661479e-05 7.106688e-07 8.19222e-07
0.0016170128 0.0025989467 0.0002630962 7.968681e-06 0.00028435333 0.001571563 4.4000075e-07 7.150356e-05
0.0016741706 0.000149772 0.00013896676 0.00033063476 0.00014336106 4.3515453e-07 0.00022418077 7.45335e-05
0.0002772446 0.00047053822 8.648484e-05 0.0006208162 0.0006249497 0.00061036425 8.3359816e-07 0.00066607475
1.2966063e-05 0.00035179555 0.0017472912 0.0018270889 4.4147524e-05 0.00083370955 7.283386e-05 0.00111015
0.0024661392 0.00020470764 0.0005168019 7.436301e-07 3.4266414e-09 1.0625719e-05 0.0012958616 0.00016991825
4.7881127e-05 0.0017151856 0.0012799345 0.0005360675 0.0019931707 0.00067711266 7.444835e-05 0.0011523048
0.003411075 0.00022359473 0.0027599968 0.0008670741 0.00016722364 0.0010048279 0.0002141678 0.000227406
-0.00011868234 -0.00029862093 -7.765533e-05 -0.00016677426 -0.0003044971 -0.0005132003 -5.507364e-05 -0.00022517605
-0.00031202528 -0.0001478324 -5.0212698e-06 -0.00018085378 -0.00020505629 -0.0002873313 -0.00010567216 -7.271576e-05
-0.0001836198 -0.0003413428 -0.00022953378 -0.00025339192 -0.00023427908 -0.00022384197 -0.00013702193 -0.00023382614
-3.398128e-05 -7.045135e-05 -8.420329e-05 -1.1192759e-09 -4.4093016e-05 -6.0882626e-06 -5.806142e-05 -7.594207e-06
-9.742216e-06 -0.00013979334 -9.963703e-05 -1.5335494e-10 -8.7282046e-05 -3.441641e-05 -0.00012731925 -0.00012656034
-0.00020780801 -0.00022034656 -0.00037827354 -3.2590786e-05 -0.00023925038 -1.4110082e-05 -2.6367834e-05 -0.00027121702
-0.00030612416 -0.00019510253 -0.00027904083 -0.00012684499 -0.00028864897 -0.00016450182 -0.00021499472 -7.720048e-05
-0.00021224309 -9.9191486e-05 -2.4812994e-06 -8.273691e-06 -1.063428e-05 -0.00035280394 -0.0002084869 -6.206069e-05
-0.0003442439 -0.00011129647 -1.2418926e-05 -0.00018759363 -6.516528e-05 -1.0354214e-05 -2.9313469e-08 -1.6375978e-07
-0.0003019925 -0.0002949315 -7.501596e-05 -1.9764752e-06 -0.000106830266 -0.0003274633 -1.1370972e-07 -1.8172192e-05
-0.0003051325 -3.4899535e-05 -1.1626657e-05 -8.2105595e-05 -3.87585e-05 -4.0383004e-09 -6.206045e-05 -1.9393068e-05
-6.234425e-05 -0.00010857106 -2.7701395e-05 -0.00019945214 -0.00013480996 -0.00018599545 -2.1015592e-07 -0.00011206178
-3.4993982e-06 -9.3583185e-05 -0.00027395273 -0.00027060413 -3.494898e-06 -0.00017146609 -1.3529101e-05 -0.00024011981
-0.00042997196 -7.637182e-05 -0.00015838355 -2.0492266e-07 -8.427135e-10 -2.656879e-06 -0.00028489216 -3.72842e-05
-2.0243282e-05 -0.00030745813 -0.00025636124 -0.00012342443 -0.000364232 -0.00015545108 -1.4919744e-05 -0.00022961959
-0.0005223994 -5.0774197e-05 -0.00044953622 -0.00015714925 -3.1587246e-05 -0.0002279925 -3.9376486e-05 -4.3771393e-05

net.bias_hh_l0 f4 [384]
00000000: 8c00 3c39 5e76 cd3a 28c2 c539 3439 203a
00000010: 27f8 bd3a 991c 373b f33e 5139 35ee 963a
00000020: 7bde b83a 3623 963a 68fb 5d37 0727 5d3a
00000030: 8b6b 833a 3c98 a03a 768c 233a bbc0 5739
00000040: 5e06 5b3a 7997 c73a 10ec 603a 4046 783a
00000050: 5950 a93a e4b1 703a 7ea5 1d3a 0c63 883a
00000060: dc2a 5939 32b0 db39 8bf8 5039 5863 3332
00000070: 92da 1439 48de d737 2837 8739 bcb4 fb37
00000080: 6200 cc38 603a 433a 9b46 a639 d0e6 1930
00000090: 52bf 173a b8b8 0739 9171 c239 3301 ff39
000000a0: 1114 983a 1a39 993a ae95 fd3a 2a49 8539
000000b0: f938 993a dada ef37 880b b438 7eb2 973a
000000c0: b3c6 d43a e7a8 7a3a defc c33a 2f5b 323a
000000d0: 27b5 c53a 2016 703a 6682 8c3a 6922 8339
000000e0: 2cf4 1c3a c974 073a 1e93 1b37 96f1 4d38
000000f0: c79d 2138 d11c ea3a 6a87 713a cdc5 8a39
00000100: 71ff c93a c889 c039 e78f 4838 91f3 2b3a
00000110: f58e e239 3c84 4338 1256 3e35 abc2 5b35
00000120: b1a4 d43a 0287 253b 53e9 8939 8785 0437
00000130: f907 9539 00f2 cd3a d5b6 eb34 5d02 9638
00000140: 3559 db3a 8915 1d39 9ba9 1139 0657 ad39
00000150: 425b 1639 fe11 e634 8b14 6b39 7a46 9c38
00000160: 686e 9139 fb8c f639 f622 b538 d7bd 223a
00000170: 07de 233a 2b04 203a d9a1 6035 e689 2e3a
00000180: ef89 5937 996e b839 fa83 e33a c5dd fe3a
00000190: 51ef 3938 7a8d 5a3a d8a8 9838 c566 913a
000001a0: ff9d 213b 5aa6 5639 dd7c 073a 60f6 4735
000001b0: c288 6b31 a937 3237 3de2 a93a 5a50 3739
000001c0: f88c 4838 824d dd3a 42d5 a73a b592 0c3a
000001d0: c9a7 023b 0299 313a 8d47 9c38 28f6 963a
000001e0: 2e3d 5a3b 6a93 6a39 3a7f 2e3b 3990 633a
000001f0: f26c 2f39 c0b7 833a ffc5 5f39 6d6e 6e39
00000200: 8590 fbb8 cf5f 9db9 ec6f aeb8 954e 2fb9
00000210: 72fe 9eb9 9d2b 07ba df12 64b8 e512 6ab9
00000220: 2168 a5b9 1f6c 18b9 a1dd 90b6 ae1f 3fb9
00000230: f50a 5ab9 e327 90b9 8489 dbb8 854e 98b8
00000240: 7bf0 42b9 eadf b4b9 6155 7ab9 d6db 84b9
00000250: 2367 80b9 71b0 6db9 4613 0eb9 66ce 7cb9
00000260: f107 11b8 dfec 91b8 c61c acb8 e275 adb0
00000270: c469 47b8 1e78 c9b6 533d 9fb8 2597 fdb6
00000280: 9133 26b7 0ddf 13b9 e06f bfb8 7a27 27af
00000290: 6d64 bab8 0f80 1db8 f34a 01b9 d624 f1b8
000002a0: ae0b 5cb9 21a7 68b9 b9ff c4b9 bf81 0ab8
000002b0: 3745 7fb9 5c47 6eb7 d589 c9b7 51fd 8db9
000002c0: 1bc6 a2b9 c7d9 4eb9 c13f 92b9 b758 05b9
000002d0: 1d93 97b9 3a26 2bb9 ef50 5fb9 781e a7b8
000002e0: c805 5db9 a025 cdb8 bbc7 0fb6 59d7 0ab7
000002f0: 5e84 1ab7 a5d1 b8b9 3335 58b9 45b2 86b8
00000300: 80c7 b4b9 a077 ebb8 d5a1 68b7 904e 45b9
00000310: 4178 8bb8 f3a9 2fb7 ab6a 0ab3 325d 34b4
00000320: bf85 9db9 a7d7 9ab9 547d 9cb8 bdec 03b6
00000330: 22c4 d7b8 766b aab9 3bc9 54b4 11b0 95b7
00000340: 94e9 a1b9 b6c1 21b8 217d 3eb7 4256 aab8
00000350: 61fe 16b8 c527 88b1 fe94 80b8 e5ad b4b7
00000360: c9bb 9eb8 3086 e2b8 ef72 0db8 f497 53b9
00000370: b980 0fb9 f8ee 42b9 dde8 78b4 b0c0 e8b8
00000380: b204 7ab6 9bd9 c4b8 014f 8db9 99e9 8db9
00000390: c27d 6ab6 d72d 4bb9 6462 5eb7 ead5 7ab9
000003a0: 83b7 ddb9 efe3 9fb8 5114 24b9 b575 87b4
000003b0: 0c0a 8a31 dd52 a6b6 8857 8eb9 e35b 1eb8
000003c0: 356c a9b7 7350 a0b9 5720 89b9 cf51 ffb8
000003d0: 779d bbb9 0f32 27b9 3cc1 80b7 47c0 6fb9
000003e0: 9415 09ba 02db 55b8 38ca eab9 6447 25b9
000003f0: a762 02b8 128c 6eb9 b250 26b8 5c14 39b8
0.00017929281 0.0015675535 0.00037719426 0.00061120396 0.0014493511 0.002794063 0.00019955244 0.0011515083
0.001410439 0.0011454585 1.3231162e-05 0.00084362965 0.0010026557 0.0012252401 0.0006238887 0.00020575795
0.0008355136 0.0015227637 0.0008580098 0.0009470917 0.0012917622 0.0009181781 0.0006013735 0.0010405495
0.00020710699 0.0004190221 0.00019929015 1.04417595e-08 0.00014195804 2.5733505e-05 0.000257903 3.0005693e-05
9.727549e-05 0.0007447358 0.00031714592 5.598908e-10 0.0005788702 0.00012943416 0.00037087177 0.00048638284
0.001160266 0.0011689991 0.0019346976 0.00025422248 0.0011689953 2.859293e-05 8.585217e-05 0.001157358
0.0016233533 0.00095619116 0.001495268 0.00068037485 0.0015083895 0.00091585703 0.0010720014 0.00025011905
0.0005987312 0.00051672437 9.272973e-06 4.9100803e-05 3.8532333e-05 0.0017861371 0.00092135987 0.00026468784
0.001541121 0.0003672375 4.7817735e-05 0.00065594265 0.0004321259 4.6614776e-05 7.0905764e-07 8.1867137e-07
0.0016223398 0.0025257473 0.00026304516 7.898902e-06 0.00028425435 0.001571238 4.390519e-07 7.1529976e-05
0.001673496 0.00014980709 0.0001389146 0.0003306197 0.00014339111 4.285393e-07 0.00022419 7.451787e-05
0.00027738814 0.00047025815 8.6372645e-05 0.0006208098 0.0006251041 0.00061041367 8.368202e-07 0.0006658122
1.2966323e-05 0.00035177617 0.0017358058 0.0019444755 4.4330318e-05 0.00083371217 7.2793744e-05 0.001109325
0.0024660823 0.00020470601 0.00051684474 7.44918e-07 3.4274739e-09 1.0622586e-05 0.0012961101 0.00017482173
4.7815003e-05 0.0016884061 0.0012804645 0.0005362437 0.0019936434 0.0006774814 7.451987e-05 0.0011517452
0.0033300626 0.00022370895 0.0026626126 0.00086808536 0.00016729886 0.0010049269 0.00021340697 0.00022738586
-0.000119955315 -0.00030016757 -8.3178136e-05 -0.00016718575 -0.00030325685 -0.000515634 -5.437701e-05 -0.00022323018
-0.00031548835 -0.00014536128 -4.3173354e-06 -0.00018226981 -0.00020794182 -0.00027495538 -0.00010468348 -7.26255e-05
-0.00018590868 -0.00034499104 -0.00023873664 -0.00025340792 -0.00024490905 -0.00022667811 -0.00013549355 -0.00024109482
-3.457809e-05 -6.9582595e-05 -8.2069586e-05 -1.2620911e-09 -4.75438e-05 -6.0042503e-06 -7.593133e-05 -7.557583e-06
-9.906377e-06 -0.00014102105 -9.128428e-05 -1.5202586e-10 -8.887877e-05 -3.755098e-05 -0.0001233032 -0.00011498637
-0.00020985186 -0.00022187505 -0.0003757456 -3.30226e-05 -0.0002434448 -1.420252e-05 -2.402525e-05 -0.0002708235
-0.00031046648 -0.0001972682 -0.0002789479 -0.00012716917 -0.00028910572 -0.00016322071 -0.00021297087 -7.968856e-05
-0.00021078356 -9.78217e-05 -2.142492e-06 -8.2755805e-06 -9.209934e-06 -0.00035251412 -0.00020619183 -6.422823e-05
-0.00034480914 -0.00011227955 -1.3865957e-05 -0.00018816651 -6.6504355e-05 -1.0470382e-05 -3.2227643e-08 -1.679771e-07
-0.00030045022 -0.00029533842 -7.462004e-05 -1.965832e-06 -0.000102885315 -0.0003250499 -1.9817246e-07 -1.7844171e-05
-0.00030882342 -3.85658e-05 -1.1354016e-05 -8.1222985e-05 -3.5999696e-05 -3.962642e-09 -6.1312676e-05 -2.1538648e-05
-7.569005e-05 -0.00010801514 -3.372406e-05 -0.00020179135 -0.00013685496 -0.00018590305 -2.3181515e-07 -0.00011098513
-3.7255636e-06 -9.3865405e-05 -0.00026952478 -0.0002706766 -3.4941918e-06 -0.00019376665 -1.32551395e-05 -0.00023921547
-0.00042289132 -7.624167e-05 -0.00015647827 -2.5231353e-07 4.017471e-09 -4.956832e-06 -0.00027149566 -3.775571e-05
-2.0196758e-05 -0.00030577517 -0.0002615477 -0.000121745856 -0.0003578474 -0.0001594501 -1.534877e-05 -0.00022864445
-0.00052293506 -5.0987124e-05 -0.00044782623 -0.00015762221 -3.1086292e-05 -0.00022749629 -3.9652637e-05 -4.41264e-05

net.weight_ih_l1 f4 [384, 128]
00000000: 9b58 7839 412f c3b9 84e8 44b9 6317 9139
00000010: 1f6a c3b9 0ee7 ff39 f41d 2439 2668 a6b9
00000020: 199b c739 6c28 82b9 51a4 3d38 fec5 9339
00000030: 1796 a039 e04e bcb9 cfa2 5db9 431c 3d39
00000040: f23a 9739 1488 d139 4b96 aab9 0250 b539
00000050: 011c ad39 8229 a939 4380 80b9 0bd6 a9b9
00000060: 32fd f838 b26e 3bb9 2b2b 4e39 6a68 1235
00000070: 26e6 1239 3091 5cb8 6eee 2bb9 0931 7538
00000080: f650 83b8 9130 83b9 5532 5839 4cbd 8f34
00000090: 308b 4d39 a529 0239 3938 8039 5523 6f39
000000a0: a75a 9eb9 510f a439 a964 df39 4693 f8b8
000000b0: 8287 ac39 8d17 a738 2c60 deb8 072a b8b9
000000c0: df6a c339 a4b9 9d39 ccac b439 6876 74b9
000000d0: a1f5 bdb9 0205 8ab9 9f8d a3b9 f621 35b9
000000e0: 242b a739 b055 5ab9 1747 03b8 b746 71b8
000000f0: d6e8 8ab8 d585 ce39 1108 9eb9 ca8d 2db9
00000100: 8c62 d2b9 3c26 6e39 f90d 9c38 e332 9b39
00000110: a93e 3039 dbd9 8bb8 4e19 44b6 60e4 0b37
00000120: 04a7 bcb9 329b b3b9 1172 43b9 3ca9 fcb7
00000130: 5071 6939 de81 ce39 1f57 f336 9125 bf38
00000140: 90b4 c6b9 8368 03b9 0b7a 8a38 4ae6 4a39
00000150: a73c 04b9 334f 7b34 c419 2fb9 f042 c838
00000160: 86ea 2f39 da07 67b9 f090 efb8 3efd a039
00000170: 8666 8139 a899 98b9 e8ca 25b7 a0e9 6539
00000180: a56f 2338 c14f 59b9 9143 b739 1011 aeb9
00000190: 7ca0 17b8 30ab 9439 08d5 a038 06f0 a839
000001a0: 4309 f039 1506 46b9 d17e 8db9 740b 1c37
000001b0: a28f 2635 bdca 14b8 5938 b939 a6c8 04b9
000001c0: 6c8e cfb8 d164 c139 acd8 b539 7028 7639
000001d0: e999 d9b9 c7d7 8eb9 fc5a aa38 1c1d a939
000001e0: fe30 fc39 59b6 1c39 25c4 e4b9 b7d5 8939
000001f0: 717f f738 a934 ad39 f741 08b9 340d 1439
00000200: eda1 5639 e985 a8b9 6d81 2ab9 6115 7b39
00000210: 50d1 a8b9 9d80 dc39 060f 0e39 72df 8fb9
00000220: e944 ac39 8da0 60b9 896e 2338 8455 7f39
00000230: f6b0 8a39 86b5 a2b9 0b97 3fb9 89cf 2339
00000240: 2bb9 8239 10c8 b439 7f71 93b9 f199 9c39
00000250: e69a 9539 0b2a 9239 bc14 5eb9 54b8 92b9
00000260: f6e5 d638 6a26 22b9 2950 3239 b742 fd34
00000270: 8c6b 0039 552a 3eb8 d3d5 14b9 1fca 5438
00000280: eda2 63b8 84db 62b9 49ea 3b39 1e36 6e34
00000290: 5faa 3139 dbad e138 3cff 5d39 5cdf 4e39
000002a0: bebf 88b9 e59a 8d39 90ce c039 2a35 d7b8
000002b0: 82cc 9439 75c1 9038 9083 c1b8 17e2 9eb9
000002c0: 6aa1 a839 9662 8839 2ab7 9b39 2d37 53b9
000002d0: c62f a4b9 b344 6eb9 e74e 8db9 cc73 1db9
000002e0: 528c 9039 b2f4 3cb9 2472 e3b7 0039 51b8
000002f0: 92d2 6eb8 a8fd b139 c747 88b9 e52a 16b9
00000300: 659b b5b9 b63f 4e39 022e 8638 d63a 8639
00000310: 7ea0 1839 8c51 72b8 59a1 29b6 f0ea f336
00000320: 327b a2b9 22a8 9ab9 1b51 29b9 9a45 dab7
00000330: 4b06 4a39 8e53 b239 0f9f d136 5b23 a538
00000340: cba0 abb9 dc56 e3b8 b730 6f38 57b3 2f39
00000350: 183a e7b8 4204 5234 a775 17b9 4a57 ac38
00000360: 1f82 1839 e0ee 47b9 9558 ceb8 7f2e 8b39
00000370: cebf 5f39 8ce4 83b9 fd2d 0db7 6ab5 4639
00000380: 6186 0d38 b7fb 3bb9 cc33 9e39 fc1a 96b9
00000390: 6929 03b8 7490 8039 58a8 8b38 b5e0 9139
000003a0: 5a32 cf39 7732 2cb9 b4bd 74b9 5702 0537
000003b0: 1a8a 1035 ae54 feb7 11c0 9f39 d2c0 e5b8
000003c0: 4727 b4b8 1cef a639 e004 9d39 b6bd 5439
000003d0: 29d8 bbb9 9d00 77b9 b9b1 9338 eef7 9139
000003e0: 83fd d839 3e60 0739 480d c5b9 fe3b 6e39
000003f0: 2542 d738 8cb7 9539 3eb7 ebb8 0d12 0039
0.00023684131 -0.00037228505 -0.00018778635 0.0002767398 -0.00037272365 0.0004880954 0.00015651417 -0.00031739584
0.00038071795 -0.0002482565 4.5214143e-05 0.0002818554 0.00030629404 -0.0003591692 -0.00021136853 0.00018034973
0.00028844882 0.00039964973 -0.00032536904 0.0003458262 0.00033017996 0.00032265118 -0.00024509625 -0.00032393666
0.00011872723 -0.00017874947 0.00019661772 5.454118e-07 0.00014009382 -5.2587304e-05 -0.00016396653 5.845822e-05
-6.261647e-05 -0.00025022452 0.00020618115 2.6773557e-07 0.00019602175 0.0001241328 0.00024455952 0.00022805978
-0.0003020365 0.0003129193 0.00042608872 -0.00011852993 0.00032907358 7.967567e-05 -0.00010603698 -0.00035126528
0.00037272924 0.00030083687 0.0003446102 -0.00023313763 -0.00036231897 -0.00026325142 -0.000311953 -0.00017274157
0.00031884864 -0.00020822021 -3.129904e-05 -5.7524736e-05 -6.623722e-05 0.00039391094 -0.00030142118 -0.00016551386
-0.00040127744 0.00022711692 7.441262e-05 0.00029601817 0.0001680801 -6.668615e-05 -2.9221005e-06 8.338218e-06
-0.0003598259 -0.0003425717 -0.00018639142 -3.0119547e-05 0.00022262824 0.0003938814 7.2521066e-06 9.114587e-05
-0.00037900032 -0.00012532067 6.603085e-05 0.0001935001 -0.00012611096 2.3405009e-07 -0.00016698899 9.549211e-05
0.00016776667 -0.00022032802 -0.00011423405 0.00030706258 0.00024681183 -0.00029106182 -9.882009e-06 0.00021926174
3.8966205e-05 -0.00020724443 0.0003495482 -0.0003320058 -3.6150668e-05 0.00028356304 7.669075e-05 0.00032222288
0.00045783268 -0.00018885017 -0.000269881 9.300991e-06 6.204883e-07 -3.5474764e-05 0.00035327932 -0.00012663248
-9.897057e-05 0.00036886943 0.00034684443 0.00023475452 -0.00041504137 -0.00027245117 8.123179e-05 0.0003225588
0.00048101688 0.00014945249 -0.00043633688 0.00026289906 0.000118016156 0.00033036366 -0.00012994545 0.00014119298
0.00020468952 -0.00032143228 -0.00016260678 0.0002394519 -0.00032199407 0.00042057494 0.00013547772 -0.00027441565
0.0003285774 -0.00021422115 3.8965172e-05 0.00024350552 0.00026453257 -0.00031034293 -0.00018271447 0.00015622204
0.00024933493 0.00034481334 -0.00028122586 0.00029869334 0.00028534903 0.00027878614 -0.00021179294 -0.00027984625
0.00010247149 -0.00015463834 0.00017005265 4.7173464e-07 0.00012247096 -4.5338955e-05 -0.00014194036 5.073298e-05
-5.4272754e-05 -0.00021634815 0.00017920988 2.2185165e-07 0.00016943504 0.00010761219 0.00021171285 0.00019728899
-0.000260828 0.0002700902 0.00036774995 -0.000102619015 0.0002838113 6.902489e-05 -9.2274626e-05 -0.00030304558
0.0003216372 0.00026013394 0.00029700372 -0.00020143083 -0.00031316112 -0.00022723041 -0.00026952403 -0.00015015824
0.00027570367 -0.00018020233 -2.711366e-05 -4.988257e-05 -5.693973e-05 0.0003394906 -0.0002599342 -0.00014321094
-0.00034638788 0.00019669425 6.3981875e-05 0.00025602308 0.00014555638 -5.7773243e-05 -2.527688e-06 7.2693147e-06
-0.00030990836 -0.00029498438 -0.0001614731 -2.6020036e-05 0.00019266566 0.0003401306 6.2472022e-06 7.8743986e-05
-0.00032735462 -0.00010840382 5.702741e-05 0.0001675611 -0.00011025759 1.9559323e-07 -0.00014444311 8.217858e-05
0.00014544323 -0.00019067107 -9.839345e-05 0.00026546788 0.0002133839 -0.00025156548 -8.414962e-06 0.00018950333
3.374217e-05 -0.00017927481 0.000301747 -0.00028630334 -3.12714e-05 0.00024521688 6.659393e-05 0.00027823975
0.00039519632 -0.00016421998 -0.00023340323 7.9279625e-06 5.3845145e-07 -3.0318592e-05 0.00030469944 -0.000109554865
-8.590385e-05 0.00031840138 0.00029949006 0.00020288568 -0.0003582847 -0.00023555984 7.04261e-05 0.00027841277
0.0004138761 0.00012910456 -0.00037584663 0.00022719798 0.00010264319 0.00028556248 -0.00011239805 0.00012213756
